learning_process/task_01/models/model-3-0.npy (npy, 24464 bytes, 1 tensors)

array f4 [1521, 4]
0.0 0.0 0.0 0.0 -0.001999 0.0 -0.001 0.0
-0.0019 -0.001 -0.001 -0.001 -0.0019 -0.001 -0.0019 -0.001
-0.0019 -0.001099 -0.001999 -0.0019 -0.001 -0.0020881 0.0 0.1
-0.002097901 -0.0019 -0.001 -0.001 -0.0031848052 -0.002809 -0.0029970012 -0.0021674798
-0.0054990207 -0.004559241 -0.0049900105 -0.0050506326 -0.007881387 -0.007112733 -0.0069790357 -0.0066971397
-0.010998462 -0.010263926 -0.00986506 -0.009922118 -0.013486003 -0.012875121 -0.012807665 -0.013548371
-0.015579409 -0.01544169 -0.0147469975 -0.014910785 -0.01762761 -0.017182793 -0.01686468 -0.017739847
-0.019737095 -0.019828519 -0.019801673 -0.01938021 -0.02079797 -0.021337185 -0.020791328 -0.022305934
-0.022633396 -0.023174524 -0.022469945 -0.022694701 -0.024854759 -0.025012275 -0.023726018 -0.02433499
-0.026856521 -0.026801668 -0.026541976 -0.026229562 -0.028759813 -0.028259909 -0.028242461 -0.028748894
-0.029927632 -0.030153913 -0.02935604 -0.030096816 -0.031038297 -0.031506356 -0.031375423 -0.030765494
-0.031739697 -0.03149758 -0.031432968 -0.032307353 -0.032714147 -0.03211109 -0.03239381 -0.03234346
-0.031456508 -0.032264713 -0.031342648 -0.03134334 -0.028987644 -0.029928539 -0.02858335 -0.028429028
-0.025920942 -0.02621662 -0.026303723 -0.025261665 -0.022975774 -0.023141414 -0.022740927 -0.009730128
-0.018790891 -0.021517621 -0.018829968 -0.0039090714 -0.015313445 -0.016395433 -0.015854124 -0.015642568
-0.011342899 -0.012498327 -0.011844089 -0.012040978 -0.008361172 -0.008646607 -0.008964085 0.16249107
-0.005194557 -0.0050886148 -0.0049900105 0.25327757 0.003488102 -0.002097901 -0.0029970012 -0.003014643
0.108436756 -0.001 -0.001 -0.001 -0.001 0.0 0.01781 0.468559
-0.001 0.0089 -0.001 -0.001 0.0 -0.001 -0.001 0.0
0.0 0.0 0.0 0.0 0.0 0.0 0.0 0.0
-0.001 0.0 -0.001 0.0 0.0 -0.001 -0.001 0.0
-0.001 0.0 -0.001 0.0 0.1 -0.001 -0.001 -0.001
0.0 0.0 0.0 0.0 -0.001 0.8499054 -0.001099 -0.001
0.011205245 0.49342573 -0.001999 -0.001999 -0.004353017 0.19591275 -0.0040670484 -0.0049499525
-0.006418906 0.036509633 -0.0059914505 -0.006820036 -0.010135985 -0.008003606 -0.009818287 -0.010749838
-0.01329619 -0.012810045 -0.012917272 -0.012527799 -0.015578685 -0.014822622 -0.014996113 -0.015505875
-0.017728385 -0.017350744 -0.016807713 -0.017406985 -0.019775148 -0.019305794 -0.019787943 -0.019004796
-0.02188397 -0.021701898 -0.021777678 -0.021369629 -0.022808459 -0.023488041 -0.022771344 -0.022785328
-0.024854217 -0.024424212 -0.024593102 -0.024629185 -0.026859319 -0.026444048 -0.026806103 -0.026646098
-0.028446203 -0.028737275 -0.028366888 -0.029022932 -0.030650595 -0.029920017 -0.02996476 -0.030242128
-0.030920373 -0.03154321 -0.031816315 -0.031506162 -0.03261855 -0.032030743 -0.03228836 -0.0327103
-0.032349847 -0.033139497 -0.033257652 -0.033404924 -0.031845726 -0.03180416 -0.03244543 -0.032421384
00000000: 0000 0000 0000 0000 0000 0000 0000 0000
00000010: a801 03bb 0000 0000 6f12 83ba 0000 0000
00000020: 6c09 f9ba 6f12 83ba 6f12 83ba 6f12 83ba
00000030: 6c09 f9ba 6f12 83ba 6c09 f9ba 6f12 83ba
00000040: 6c09 f9ba 520c 90ba a801 03bb 6c09 f9ba
00000050: 6f12 83ba 81d8 08bb 0000 0000 cdcc cc3d
00000060: f07c 09bb 6c09 f9ba 6f12 83ba 6f12 83ba
00000070: 2ab8 50bb 3317 38bb 5669 44bb 470c 0ebb
00000080: 2131 b4bb af65 95bb 3e83 a3bb c77f a5bb
00000090: ef20 01bc ee11 e9bb 65b0 e4bb ae73 dbbb
000000a0: e532 34bc 072a 28bc 10a1 21bc 6190 22bc
000000b0: 65f4 5cbc 2cf2 52bc 3ed7 51bc fdf9 5dbc
000000c0: c740 7fbc 24ff 7cbc 649d 71bc 5d4c 74bc
000000d0: c767 90bc eec2 8cbc cc27 8abc 2853 91bc
000000e0: b0af a1bc 6b6f a2bc 1e37 a2bc 3fc3 9ebc
000000f0: 8160 aabc 52cb aebc 9352 aabc efba b6bc
00000100: ac69 b9bc 80d8 bdbc e412 b8bc 3dea b9bc
00000110: 359c cbbc 8be6 ccbc 115d c2bc 2c5a c7bc
00000120: 3502 dcbc 2c8f dbbc 8f6e d9bc 61df d6bc
00000130: b399 ebbc 5381 e7bc bc5c e7bc cd82 ebbc
00000140: cb2a f5bc 5705 f7bc 147c f0bc 998d f6bc
00000150: 0744 febc cf0c 01bd 8483 00bd eb07 fcbc
00000160: 7c01 02bd 9b03 01bd dbbf 00bd b754 04bd
00000170: 45ff 05bd eb86 03bd 5faf 04bd 937a 04bd
00000180: 8ad8 00bd 0128 04bd 2661 00bd e061 00bd
00000190: 7f77 edbc b22c f5bc a127 eabc fee3 e8bc
000001a0: 2858 d4bc 3dc4 d6bc e87a d7bc 8df1 cebc
000001b0: b137 bcbc 1093 bdbc 2e4b babc 1d6b 1fbc
000001c0: 5bef 99bc b945 b0bc 4e41 9abc ab17 80bb
000001d0: 3ee5 7abc b74f 86bc 82e0 81bc d824 80bc
000001e0: 91d7 39bc c8c5 4cbc b60d 42bc 8647 45bc
000001f0: 4cfd 08bc 80aa 0dbc 19de 12bc 0f64 263e
00000200: 1a37 aabb 65be a6bb 3e83 a3bb 99ad 813e
00000210: a498 643b f07c 09bb 5669 44bb 5191 45bb
00000220: 1714 de3d 6f12 83ba 6f12 83ba 6f12 83ba
00000230: 6f12 83ba 0000 0000 47e6 913c f7e6 ef3e
00000240: 6f12 83ba 4ed1 113c 6f12 83ba 6f12 83ba
00000250: 0000 0000 6f12 83ba 6f12 83ba 0000 0000
00000260: 0000 0000 0000 0000 0000 0000 0000 0000
00000270: 0000 0000 0000 0000 0000 0000 0000 0000
00000280: 6f12 83ba 0000 0000 6f12 83ba 0000 0000
00000290: 0000 0000 6f12 83ba 6f12 83ba 0000 0000
000002a0: 6f12 83ba 0000 0000 6f12 83ba 0000 0000
000002b0: cdcc cc3d 6f12 83ba 6f12 83ba 6f12 83ba
000002c0: 0000 0000 0000 0000 0000 0000 0000 0000
000002d0: 6f12 83ba 6693 593f 520c 90ba 6f12 83ba
000002e0: 3496 373c 4ca2 fc3e a801 03bb a801 03bb
000002f0: c1a3 8ebb 5a9d 483e e044 85bb 3633 a2bb
00000300: b055 d2bb 208b 153d ee53 c4bb 9c7a dfbb
00000310: 6711 26bc 8f21 03bc e1dc 20bc 1720 30bc
00000320: 43d8 59bc 39e1 51bc f7a2 53bc 6641 4dbc
00000330: be3d 7fbc 95da 72bc 42b2 75bc 5b0c 7ebc
00000340: 1e3b 91bc 2623 8ebc 54b0 89bc 1899 8ebc
00000350: 7eff a1bc 2f27 9ebc 531a a2bc f2af 9bbc
00000360: 0346 b3bc 2ec8 b1bc 1a67 b2bc 5c0f afbc
00000370: ced8 babc fe69 c0bc f88a babc 4ca8 babc
00000380: 129b cbbc 4915 c8bc 7977 c9bc 25c3 c9bc
00000390: 1308 dcbc 30a1 d8bc 7998 dbbc eb48 dabc
000003a0: 0308 e9bc 6f6a ebbc ad61 e8bc 80c1 edbc
000003b0: f516 fbbc d31a f5bc a878 f5bc 57be f7bc
000003c0: b94c fdbc 7433 01bd d351 02bd 9b0c 01bd
000003d0: 079b 05bd ab32 03bd cd40 04bd 3cfb 05bd
000003e0: 4681 04bd 48bd 07bd 2d39 08bd 9ad3 08bd
000003f0: aa70 02bd 1445 02bd 80e5 04bd 49cc 04bd
