learning_process/task_01/models/model-9-1.npy (npy, 24464 bytes, 1 tensors)

array f4 [1521, 4]
000000 00 00 00 00 00 00 00 00 00 00 00 00 00 00 00 00
       0.0 0.0 0.0 0.0
000010 00 00 00 00 00 00 00 00 00 00 00 00 00 00 00 00
       0.0 0.0 0.0 0.0
000020 00 00 00 00 00 00 00 00 00 00 00 00 00 00 00 00
       0.0 0.0 0.0 0.0
000030 00 00 00 00 00 00 00 00 00 00 00 00 00 00 00 00
       0.0 0.0 0.0 0.0
000040 00 00 00 00 00 00 00 00 00 00 00 00 00 00 00 00
       0.0 0.0 0.0 0.0
000050 6f 12 83 ba 00 00 00 00 00 00 00 00 00 00 00 00
       -0.001 0.0 0.0 0.0
000060 0d ee 3d bb 6f 12 83 ba 00 00 00 00 00 00 00 00
       -0.0028981 -0.001 0.0 0.0
000070 a8 01 03 bb 6c 09 f9 ba a8 01 03 bb 33 17 38 bb
       -0.001999 -0.0019 -0.001999 -0.002809
000080 a8 01 03 bb 0d ee 3d bb a8 01 03 bb a8 01 03 bb
       -0.001999 -0.0028981 -0.001999 -0.001999
000090 f0 7c 09 bb 7d 8b 73 bb a8 01 03 bb a8 01 03 bb
       -0.002097901 -0.0037162 -0.001999 -0.001999
0000a0 0e 80 4f bb 7d 8b 73 bb 56 69 44 bb b0 3e 4a bb
       -0.003166202 -0.0037162 -0.0029970012 -0.0030860119
0000b0 79 03 8e bb 69 38 92 bb 23 e0 82 bb eb 21 83 bb
       -0.00433391 -0.004462291 -0.0039940043 -0.004001846
0000c0 e1 c0 b0 bb eb c1 b2 bb 3e 83 a3 bb 22 95 a2 bb
       -0.0053940867 -0.0054552457 -0.0049900105 -0.0049616257
0000d0 97 09 d0 bb bb f0 d0 bb fe 1d c4 bb 72 b2 c3 bb
       -0.0063487994 -0.0063763536 -0.0059850207 -0.0059722
0000e0 4b 79 f4 bb ef b8 f0 bb 65 b0 e4 bb 26 3f e1 bb
       -0.0074607483 -0.0073462646 -0.0069790357 -0.006873983
0000f0 20 fb 08 bc 28 ce f6 bb 7a 00 01 bc 0c 5d 02 bc
       -0.008360654 -0.0075319 -0.007873649 -0.007956754
000100 33 b3 19 bc 93 94 0a bc 4a a2 12 bc 84 4e 10 bc
       -0.009381103 -0.008458274 -0.008949826 -0.008807782
000110 51 25 18 bc e4 bc 18 bc ce 1a 23 bc 22 2d 23 bc
       -0.009286241 -0.009322379 -0.009955121 -0.009959491
000120 6a 7b 23 bc 46 de 1b bc ce 1a 23 bc f2 3c 26 bc
       -0.009978155 -0.009513443 -0.009955121 -0.010146366
000130 40 80 21 bc f1 03 21 bc 19 de 12 bc d6 c4 14 bc
       -0.009857237 -0.0098276 -0.008964085 -0.0090801325
000140 97 f2 11 bc a3 4a 13 bc 19 de 12 bc 5b 20 21 bc
       -0.008907936 -0.008989963 -0.008964085 -0.009834374
000150 81 3c 0e bc de 51 06 bc 19 de 12 bc a5 03 23 bc
       -0.008681417 -0.00819823 -0.008964085 -0.009949599
000160 3b 4f f9 bb 4a 31 04 bc 41 19 ff bb 80 df e7 bb
       -0.007608322 -0.008068392 -0.007784993 -0.007076204
000170 ba 4e d1 bb c2 40 ca bb 05 cc c3 bb e5 b1 c2 bb
       -0.0063875588 -0.0061722705 -0.0059752488 -0.005941617
000180 84 c1 b5 bb e5 ad a3 bb 3e 83 a3 bb 7a c8 c3 bb
       -0.0055467505 -0.004995095 -0.0049900105 -0.0059748264
000190 bb 1a 9d bb 1e 1c 86 bb 56 69 44 bb fa 73 83 bb
       -0.0047944463 -0.0040927073 -0.0029970012 -0.004011628
0001a0 7d 8b 73 bb ae d2 4a bb 56 69 44 bb 00 8e 82 bb
       -0.0037162 -0.0030948329 -0.0029970012 -0.003984213
0001b0 0d ee 3d bb 56 69 44 bb a8 01 03 bb 81 d8 08 bb
       -0.0028981 -0.0029970012 -0.001999 -0.0020881
0001c0 a8 01 03 bb 81 d8 08 bb a8 01 03 bb 0d ee 3d bb
       -0.001999 -0.0020881 -0.001999 -0.0028981
0001d0 6c 09 f9 ba 17 a6 03 bb 0d ee 3d bb a8 01 03 bb
       -0.0019 -0.002008801 -0.0028981 -0.001999
0001e0 a8 01 03 bb 6c 09 f9 ba a8 01 03 bb a8 01 03 bb
       -0.001999 -0.0019 -0.001999 -0.001999
0001f0 a8 01 03 bb a8 01 03 bb 6f 12 83 ba 6c 09 f9 ba
       -0.001999 -0.001999 -0.001 -0.0019
000200 6f 12 83 ba a8 01 03 bb 6f 12 83 ba 17 a6 03 bb
       -0.001 -0.001999 -0.001 -0.002008801
000210 6f 12 83 ba 6f 12 83 ba 6f 12 83 ba 6f 12 83 ba
       -0.001 -0.001 -0.001 -0.001
000220 00 00 00 00 00 00 00 00 00 00 00 00 6f 12 83 ba
       0.0 0.0 0.0 -0.001
000230 00 00 00 00 00 00 00 00 00 00 00 00 00 00 00 00
       0.0 0.0 0.0 0.0
000240 00 00 00 00 00 00 00 00 00 00 00 00 00 00 00 00
       0.0 0.0 0.0 0.0
000250 00 00 00 00 00 00 00 00 00 00 00 00 00 00 00 00
       0.0 0.0 0.0 0.0
000260 00 00 00 00 00 00 00 00 00 00 00 00 00 00 00 00
       0.0 0.0 0.0 0.0
000270 00 00 00 00 00 00 00 00 00 00 00 00 00 00 00 00
       0.0 0.0 0.0 0.0
000280 00 00 00 00 00 00 00 00 00 00 00 00 00 00 00 00
       0.0 0.0 0.0 0.0
000290 00 00 00 00 00 00 00 00 00 00 00 00 00 00 00 00
       0.0 0.0 0.0 0.0
0002a0 00 00 00 00 00 00 00 00 00 00 00 00 00 00 00 00
       0.0 0.0 0.0 0.0
0002b0 00 00 00 00 00 00 00 00 00 00 00 00 00 00 00 00
       0.0 0.0 0.0 0.0
0002c0 00 00 00 00 00 00 00 00 00 00 00 00 6f 12 83 ba
       0.0 0.0 0.0 -0.001
0002d0 52 0c 90 ba 6f 12 83 ba 6f 12 83 ba 00 00 00 00
       -0.001099 -0.001 -0.001 0.0
0002e0 a8 01 03 bb 6c 09 f9 ba 6f 12 83 ba 6c 09 f9 ba
       -0.001999 -0.0019 -0.001 -0.0019
0002f0 17 a6 03 bb a8 01 03 bb 52 0c 90 ba 6c 09 f9 ba
       -0.002008801 -0.001999 -0.001099 -0.0019
000300 a8 01 03 bb 6c 09 f9 ba ca 53 0f bb a8 01 03 bb
       -0.001999 -0.0019 -0.002187001 -0.001999
000310 55 90 4f bb 41 9a 31 bb 0d ee 3d bb 56 69 44 bb
       -0.0031671722 -0.00271 -0.0028981 -0.0029970012
000320 b0 3e 4a bb 4a 71 79 bb b8 14 86 bb a3 da 7f bb
       -0.0030860119 -0.003806191 -0.0040918253 -0.003904023
000330 32 a1 87 bb f7 9d 94 bb 6d 39 a1 bb 23 e0 82 bb
       -0.004139089 -0.0045354324 -0.0049201758 -0.0039940043
000340 59 d4 af bb 1b a6 bd bb d6 7f c1 bb fd 91 b9 bb
       -0.00536589 -0.0057876236 -0.005905132 -0.005663155
000350 dc 1a d3 bb 11 e3 d9 bb dc 0f fa bb 34 fe e8 bb
       -0.006442411 -0.006649383 -0.007631285 -0.0071103815
000360 aa b9 f4 bb c8 fa 06 bc a4 e8 fe bb 4a 51 ff bb
       -0.007468422 -0.008238502 -0.007779198 -0.007791673
000370 82 28 15 bc 37 fa 0c bc 3c 4f 11 bc d6 d5 f5 bb
       -0.009103896 -0.008604578 -0.008868989 -0.007502298
000380 3b 33 28 bc 16 89 18 bc de bd 1f bc 10 c2 17 bc
       -0.010266121 -0.009310028 -0.009749858 -0.009262577
000390 26 37 23 bc e0 fd 1e bc 8c ad 2c bc fa f6 27 bc
       -0.009961879 -0.009704083 -0.010539424 -0.010251755
0003a0 c2 58 22 bc f0 bb 19 bc c1 dd 1f bc c8 b2 2a bc
       -0.009908857 -0.009383187 -0.00975746 -0.010418601
0003b0 69 b6 1d bc 6d b5 21 bc e8 73 1b bc 76 cc 39 bc
       -0.0096260095 -0.009869915 -0.009488083 -0.011340251
0003c0 80 63 1a bc 7d 5f 25 bc fe 0b 1d bc a5 69 19 bc
       -0.009423137 -0.010093567 -0.009585379 -0.0093635665
0003d0 b1 0c f5 bb f4 8e 07 bc c8 a1 00 bc 9e ba ec bb
       -0.0074783196 -0.008273829 -0.007851072 -0.007224395
0003e0 01 85 d4 bb 04 1c d2 bb df f8 c5 bb 8d 6f e6 bb
       -0.006485582 -0.006412031 -0.0060416306 -0.007032341
0003f0 35 df bc bb b6 48 ae bb 04 30 c1 bb 38 c9 c1 bb
       -0.005763913 -0.0053187264 -0.0058956165 -0.0059138797
