learning_process/task_02/models/model-14-1.npy (npy, 24464 bytes, 1 tensors)

array f4 [1521, 4]
00000000: 86d9 85bb 23e0 82bb 4147 a0bb 3e83 a3bb
00000010: 4247 a0bb 2580 85bb 23e0 82bb 5e16 a1bb
00000020: 2d1b a6bb 19b0 b3bb 3e83 a3bb fe31 a3bb
00000030: 3e83 a3bb ae60 bcbb 1c7b a3bb 9422 a6bb
00000040: 2654 c3bb ef16 a4bb 3e83 a3bb a6f9 bdbb
00000050: 540c bfbb 7f43 bebb 3e83 a3bb 3b07 c4bb
00000060: bb93 e2bb 80fd b8bb 271c c4bb 8792 c8bb
00000070: 7e3f d0bb 6337 c5bb 3ed1 c3bb 8a32 f7bb
00000080: fca1 41bb 81c8 e4bb bd6a d1bb 457d a1bb
00000090: 6cca 363c 0bd6 cfbb f84e 3fbb b374 c53b
000000a0: f230 0ebb d7d0 16bb ab25 e33b d9ad 623d
000000b0: f885 bbbb db85 e43b 9e87 f3ba aa09 aa3c
000000c0: 01ef c0bb 2ebc c0ba f3d3 ccbb 0ace 04bb
000000d0: df89 c4bb 1b52 ccbb 67c7 c3bb 779d b8bb
000000e0: 0988 d5bb aa19 c6bb fe1d c4bb 723d cabb
000000f0: 326d bdbb fe1d c4bb fe1d c4bb e1d2 c4bb
00000100: d72c b8bb 48bd b0bb 3e83 a3bb ed38 c2bb
00000110: c257 98bb 7dc2 a7bb 3e83 a3bb 84ee a2bb
00000120: ba4b 82bb 1e1c 86bb 23e0 82bb 25ab 85bb
00000130: f071 7abb 0b14 50bb 719a 73bb 9d81 7abb
00000140: a8b2 7ebb 53fd 44bb 5669 44bb 0b22 0dbb
00000150: 5669 44bb b3aa 49bb 5669 44bb 2450 33bb
00000160: a801 03bb 53fd 44bb 5669 44bb a801 03bb
00000170: 6c09 f9ba a801 03bb a801 03bb 6f12 83ba
00000180: 6f12 83ba 6f12 83ba 6f12 83ba 6c09 f9ba
00000190: 6f12 83ba 6f12 83ba 6f12 83ba a801 03bb
000001a0: 6c09 f9ba 6f12 83ba 6f12 83ba 6f12 83ba
000001b0: 6c09 f9ba 6f12 83ba a801 03bb 6f12 83ba
000001c0: 6f12 83ba 520c 90ba 6f12 83ba a801 03bb
000001d0: 0000 0000 6f12 83ba 0000 0000 0000 0000
000001e0: 0000 0000 0000 0000 0000 0000 0000 0000
000001f0: 0000 0000 0000 0000 0000 0000 0000 0000
00000200: 0000 0000 0000 0000 0000 0000 0000 0000
00000210: 0000 0000 0000 0000 0000 0000 0000 0000
00000220: 0000 0000 0000 0000 0000 0000 0000 0000
00000230: 0000 0000 0000 0000 0000 0000 0000 0000
00000240: 0000 0000 0000 0000 0000 0000 0000 0000
00000250: 0000 0000 0000 0000 0000 0000 0000 0000
00000260: 0000 0000 0000 0000 0000 0000 0000 0000
00000270: 0d9c a5bb 3e83 a3bb d7e9 9dbb 0da8 9dbb
00000280: 954e a0bb bf5a a2bb 23e0 82bb da31 a3bb
00000290: 3e83 a3bb fa6b 9dbb 9817 a5bb ca37 a0bb
000002a0: 97d0 a5bb b8af a3bb 587c c0bb e8db a0bb
000002b0: a6cb a6bb c542 bebb 3f1b bfbb 589d a2bb
000002c0: d087 c4bb 7556 c0bb d87d c1bb 67be a6bb
000002d0: 430c c0bb 4b8a c3bb bdf3 dfbb 419f c8bb
000002e0: 3a4d a0bb 584d d8bb e70e e2bb a29c a2bb
000002f0: 93f0 b53b e32d dcbb 2ec5 d2bb fb62 d63a
00000300: a3dd 123d ca5a 8fbb fca1 41bb 33a2 283d
00000310: ac23 953c 3c9b 823b 07cc 303c 5c8f 423e
00000320: 6a7b abba 33a2 283d c9d0 36bb a04f bd3d
00000330: 3549 dcbb 3bb4 bd3c 15ff cabb 293e 883c
00000340: db86 ddbb 2e30 7dba 5038 dfbb ea22 6aba
00000350: 3e4c e6bb 8a56 b5bb 3247 dbbb 3df9 d1bb
00000360: 3733 d8bb 85bf c5bb 92bc c3bb 3243 e4bb
00000370: 4156 d6bb 8a09 c6bb 95f3 c0bb b138 c9bb
00000380: a94e b6bb f8ec abbb e0db a3bb 26ea c3bb
00000390: 13bb 97bb 0a72 8bbb 4247 a0bb ade3 97bb
000003a0: e605 54bb 498a 8abb 9a86 82bb 6036 08bb
000003b0: 8d89 03bb 40a2 49bb 5669 44bb 55ae d53b
000003c0: 0dee 3dbb ff18 b0ba 5669 44bb 26e4 833c
000003d0: 6c09 f9ba 503a 91ba 6c09 f9ba a801 03bb
000003e0: 520c 90ba 6c09 f9ba a801 03bb 6f12 83ba
000003f0: 5669 44bb 6c09 f9ba 520c 90ba 6f12 83ba
-0.0040847687 -0.0039940043 -0.0048913066 -0.0049900105 -0.004891307 -0.004074114 -0.0039940043 -0.0049159965
-0.0050691576 -0.005483639 -0.0049900105 -0.004980325 -0.0049900105 -0.00574883 -0.004989041 -0.00507004
-0.005960959 -0.0050076167 -0.0049900105 -0.0057975827 -0.005830327 -0.005806386 -0.0049900105 -0.0059823073
-0.0069145835 -0.005645454 -0.0059848013 -0.006120983 -0.006355225 -0.0060185655 -0.0059758713 -0.0075438665
-0.0029546013 -0.0069819097 -0.006390898 -0.0049282634 0.01115666 -0.0063426546 -0.0029191356 0.0060258745
-0.0021696654 -0.0023012662 0.0069319806 0.055341575 -0.0057227574 0.0069739646 -0.0018579846 0.020756561
-0.0058878665 -0.0014704519 -0.0062508523 -0.002026441 -0.005997881 -0.0062353737 -0.0059746983 -0.0056340056
-0.006516461 -0.00604554 -0.0059850207 -0.0061718756 -0.0057808394 -0.0059850207 -0.0059850207 -0.006006584
-0.0056205797 -0.005393658 -0.0049900105 -0.0059271962 -0.0046491334 -0.0051196204 -0.0049900105 -0.004972281
-0.0039763125 -0.0040927073 -0.0039940043 -0.00407924 -0.0038214885 -0.0031750228 -0.0037170912 -0.0038224228
-0.0038863812 -0.003005822 -0.0029970012 -0.0021535184 -0.0029970012 -0.003077191 -0.0029970012 -0.0027361
-0.001999 -0.003005822 -0.0029970012 -0.001999 -0.0019 -0.001999 -0.001999 -0.001
-0.001 -0.001 -0.001 -0.0019 -0.001 -0.001 -0.001 -0.001999
-0.0019 -0.001 -0.001 -0.001 -0.0019 -0.001 -0.001999 -0.001
-0.001 -0.001099 -0.001 -0.001999 0.0 -0.001 0.0 0.0
0.0 0.0 0.0 0.0 0.0 0.0 0.0 0.0
0.0 0.0 0.0 0.0 0.0 0.0 0.0 0.0
0.0 0.0 0.0 0.0 0.0 0.0 0.0 0.0
0.0 0.0 0.0 0.0 0.0 0.0 0.0 0.0
0.0 0.0 0.0 0.0 -0.005054003 -0.0049900105 -0.0048191356 -0.004811293
-0.00489218 -0.0049546654 -0.0039940043 -0.004980308 -0.0049900105 -0.0048041316 -0.005038213 -0.004889463
-0.0050602662 -0.0049953125 -0.005874198 -0.0049090274 -0.0050901948 -0.0058062994 -0.0058321054 -0.0049626045
-0.0059976354 -0.0058696815 -0.0059048943 -0.0050886157 -0.0058608367 -0.0059674135 -0.006834476 -0.0061225
-0.0048920186 -0.006601017 -0.006898749 -0.0049625197 0.0055523603 -0.0067193373 -0.006432197 0.0016356403
0.0358559 -0.0043748366 -0.0029546013 0.04117031 0.018205486 0.0039857905 0.010790831 0.19
-0.0013083045 0.04117031 -0.0027895442 0.09243703 -0.006722594 0.02315723 -0.006194959 0.016631203
-0.006760461 -0.00096583634 -0.006812133 -0.0008931594 -0.0070281317 -0.005533998 -0.0066918368 -0.0064078853
-0.006597902 -0.006034794 -0.005973407 -0.006966018 -0.006541044 -0.0060436176 -0.0058884122 -0.0061407913
-0.0055635762 -0.0052467547 -0.0050005764 -0.0059788404 -0.0046304553 -0.004255538 -0.004891307 -0.0046352954
-0.0032352149 -0.0042279107 -0.003983331 -0.0020784363 -0.0020071 -0.0030766875 -0.0029970012 0.006521026
-0.0028981 -0.0013435184 -0.0029970012 0.0161 -0.0019 -0.001108 -0.0019 -0.001999
-0.001099 -0.0019 -0.001999 -0.001 -0.0029970012 -0.0019 -0.001099 -0.001
