learning_process/task_05/models/model-17-0.npy (npy, 800 bytes, 1 tensors)

array f4 [42, 4]
00000000: 0000 0000 0000 0000 0000 0000 0000 0000
00000010: 0000 0000 0000 0000 0000 0000 0000 0000
00000020: 555a 3dbc 0000 98c1 5b53 33bc 1144 33bc
00000030: 904b 33bc 0667 35bc d6b7 31bc 680a c73e
00000040: cf93 eebb 3677 1bbc 3b9d 02bc 0000 98c1
00000050: 0000 98c1 f6bb c2bb 3e83 a3bb 0000 98c1
00000060: 0000 0000 0000 0000 0000 0000 0000 0000
00000070: 0000 0000 0000 0000 0000 0000 0000 0000
00000080: 0000 0000 0000 0000 0000 0000 0000 0000
00000090: 08c0 d83d 0000 98c1 fbea 3abc ae6c 663f
000000a0: aafb c7c2 d566 1e3d 31cf b33d 4052 643f
000000b0: 0000 0000 0000 0000 0000 0000 0000 0000
000000c0: 0000 0000 0000 0000 0000 0000 0000 0000
000000d0: c187 43bc cdcc d8c1 0000 20c1 8f1c 4dbc
000000e0: 4b76 6d3f 8d2b 6d3f 8c7e c3c2 3fe1 7a3f
000000f0: eab2 623f 9ecf 753f c3d1 c1c2 b459 c4c2
00000100: 4945 653f f7ca 703f 82ec 4d3f 45cb 113f
00000110: 1de4 353f 28d3 6b3f 6558 5d3f 5c25 573f
00000120: 4260 61bc 3315 5b3f 5c8f 09c2 e5f8 ecbb
00000130: 8f3c 63bc 27d5 47bc 0000 20c1 0000 20c1
00000140: 89b8 51bc 158c 54bc ca3a 4cbc 75f0 59bc
00000150: 380b c5c2 15e4 733f 8fad 6e3f fcff 7f3f
00000160: 0000 0000 0000 0000 0000 0000 0000 0000
00000170: 05a2 4a3f 0000 20c1 df2e 40bc 0000 98c1
00000180: 37be 6bbc 39dc 4dbb 7999 663f d3cd 23c2
00000190: 0000 20c1 2ab8 113e 93f5 53bc 64cb 53bc
000001a0: 0000 0000 0000 0000 0000 0000 0000 0000
000001b0: 01b8 53bc 0000 98c1 a88b 4abc 02fd 55bc
000001c0: 0000 0000 0000 0000 0000 0000 0000 0000
000001d0: 0000 0000 0000 0000 0000 0000 0000 0000
000001e0: 0000 0000 0000 0000 0000 0000 0000 0000
000001f0: 0000 0000 0000 0000 0000 0000 0000 0000
00000200: d7e7 48bc 0000 98c1 cc65 45bc 0675 44bc
00000210: f576 4ebc 7196 49bc cdcc d8c1 7adb 55bc
00000220: a691 53bc 117b 55bc e40f 4bbc 5dab 4fbc
00000230: 0000 0000 0000 0000 0000 0000 0000 0000
00000240: 0000 0000 0000 0000 0000 0000 0000 0000
00000250: 0000 0000 0000 0000 0000 0000 0000 0000
00000260: 0000 0000 0000 0000 0000 0000 0000 0000
00000270: 0244 4cbc 0000 20c1 e26c 40bc 6b05 43bc
00000280: b8bd 4abc 62ce 44bc c9f1 52bc 53a9 50bc
00000290: 015f 43bc 2d69 53bc 7918 4dbc c187 43bc
0.0 0.0 0.0 0.0 0.0 0.0 0.0 0.0
-0.011557181 -19.0 -0.010945166 -0.010941521 -0.0109433085 -0.011071926 -0.010847053 0.38875127
-0.0072808038 -0.009488871 -0.007972057 -19.0 -19.0 -0.005942817 -0.0049900105 -19.0
0.0 0.0 0.0 0.0 0.0 0.0 0.0 0.0
0.0 0.0 0.0 0.0 0.10583502 -19.0 -0.011408563 0.9000958
-99.99153 0.038672287 0.08779753 0.89188004 0.0 0.0 0.0 0.0
0.0 0.0 0.0 0.0 -0.011934222 -27.1 -10.0 -0.012519016
0.92758626 0.9264458 -97.74716 0.9799995 0.8855425 0.96019924 -96.90969 -98.1752
0.89558846 0.940597 0.8043901 0.5695079 0.710512 0.92119074 0.86463004 0.8404138
-0.01375586 0.8557922 -34.39 -0.007231819 -0.013869419 -0.012196816 -10.0 -10.0
-0.012800344 -0.012972851 -0.012465188 -0.013301958 -98.52191 0.952699 0.9323358 0.99999976
0.0 0.0 0.0 0.0 0.7915347 -10.0 -0.011729925 -19.0
-0.0143886125 -0.003141178 0.9007793 -40.951 -10.0 0.1423041 -0.012936967 -0.01292691
0.0 0.0 0.0 0.0 -0.012922288 -19.0 -0.012362398 -0.01306081
0.0 0.0 0.0 0.0 0.0 0.0 0.0 0.0
0.0 0.0 0.0 0.0 0.0 0.0 0.0 0.0
-0.012262306 -19.0 -0.012048196 -0.011990791 -0.012601604 -0.012303934 -27.1 -0.013052816
-0.012913143 -0.01302983 -0.012393925 -0.0126751335 0.0 0.0 0.0 0.0
0.0 0.0 0.0 0.0 0.0 0.0 0.0 0.0
0.0 0.0 0.0 0.0 -0.012467386 -10.0 -0.01174471 -0.011903147
-0.012374334 -0.012012096 -0.012875029 -0.012735683 -0.011924506 -0.012903494 -0.012518042 -0.011934222
