learning_process/task_06/models/model-14-1.npy (npy, 24464 bytes, 1 tensors)

array f4 [1521, 4]
0	0xbd3b8638	-0.045782298
1	0xbd6718d4	-0.056420162
2	0xbd671f25	-0.056426186
3	0xbd409d1d	-0.047024835
4	0xbce95d52	-0.028486881
5	0xbd66dc18	-0.05636224
6	0xbd3b4dd7	-0.04572853
7	0xbcef1b09	-0.029187696
8	0xbad56c46	-0.0016282878
9	0xbd3aba21	-0.045587663
10	0xbcf10f9b	-0.029426387
11	0xbb1e8527	-0.0024188252
12	0x3d26278b	0.040565055
13	0xbcf0055a	-0.029299427
14	0xbaf0eed1	-0.001838172
15	0x3d1e7f81	0.038695816
16	0x3dcb2eba	0.09921022
17	0xba26b70a	-0.00063596724
18	0x3d26ef9e	0.04075586
19	0x3dcbbbed	0.099479534
20	0x3e2dd70d	0.16976567
21	0x3d3ab95a	0.04558692
22	0x3dcd0951	0.100115426
23	0x3e25edf0	0.16204047
24	0x3e7f0740	0.2490511
25	0x3dce3aca	0.10069807
26	0x3e288cc2	0.16459945
27	0x3e7d9c90	0.24766755
28	0x3eae5b7c	0.34054172
29	0x3e2e40f8	0.17016971
30	0x3e7dca11	0.24784113
31	0x3eadd425	0.33950916
32	0x3edb84a3	0.4287463
33	0x3e822105	0.25415817
34	0x3eacaf3e	0.3372745
35	0x3edc3eb5	0.43016592
36	0x3f024cae	0.50898254
37	0x3eac628e	0.3366894
38	0x3ed7fab3	0.42183456
39	0x3f02aa92	0.5104152
40	0x3ed39642	0.41325575
41	0x3ed5c222	0.41749674
42	0x3f012450	0.50446033
43	0x3f172325	0.59038
44	0x3ea1f0ea	0.31629115
45	0x3eff55b9	0.4987009
46	0x3ed23786	0.41057986
47	0x3efd87b3	0.49517593
48	0x3e5d6501	0.21620561
49	0x3ecd9021	0.40149024
50	0x3e9beda6	0.3045475
51	0x3ece3644	0.40275776
52	0x3df5a5ca	0.119945124
53	0x3e99d887	0.3004801
54	0x3e564c2b	0.20927493
55	0x3e94829a	0.2900589
56	0x3d4a788a	0.04943136
57	0x3e448b58	0.1919378
58	0x3ddb8c67	0.10720139
59	0x3e3ccb52	0.18436936
60	0xba108b55	-0.0005513926
61	0x3dd27353	0.102759026
62	0x3d21ff2c	0.03954999
63	0x3dc8864b	0.09791239
64	0x3c203baf	0.009779855
65	0x3d153b47	0.036433484
66	0xbbac2942	-0.0052539418
67	0x3cf11825	0.029430458
68	0x3d2eb7d1	0.04265577
69	0xbbd17284	-0.006391825
70	0x3b89341c	0.00418712
71	0x3d33efdd	0.043929923
72	0x3da45332	0.08023681
73	0x3a807e42	0.0009803253
74	0x3d14be44	0.036314264
75	0x3dad15a3	0.084513925
76	0x3dfa2f66	0.12216072
77	0x3cf05462	0.029337112
78	0x3d8eddab	0.069758736
79	0x3e009458	0.12556589
80	0x3dbe6c64	0.092980176
81	0x3d7347e9	0.05939475
82	0x3ddc3727	0.10752707
83	0x3e2a5c6a	0.16636816
84	0x3df02049	0.11724908
85	0x3dcb90b0	0.09939706
86	0x3daad05f	0.08340525
87	0x3e095ed9	0.13415088
88	0x3d52a234	0.05142422
89	0x3d976f16	0.07394235
90	0x3ddbfb4e	0.10741292
91	0x3e2a3328	0.16621077
92	0x3b2df650	0.0026544519
93	0x3dbb4293	0.091435574
94	0x3d293e16	0.041318975
95	0x3db7d982	0.08977033
96	0xbcac0854	-0.021000065
97	0x3cfac26c	0.030610286
98	0xbb089ce0	-0.0020845458
99	0x3ced5dd7	0.02897541
100	0xbcee0f8d	-0.02906015
101	0xbbc04d23	-0.0058685704
102	0xbcae71e3	-0.02129454
103	0xbbe91b3b	-0.007113842
104	0xbcf093a2	-0.029367272
105	0xbcae498d	-0.021275306
106	0xbcde247f	-0.027117012
107	0xbcb34c88	-0.021887079
108	0xbce29282	-0.027657751
109	0xbccfaa62	-0.0253498
110	0xbce52e0b	-0.027976057
111	0xbcd57879	-0.026058422
112	0xbcd03e01	-0.02542019
113	0xbcd3d121	-0.025856556
114	0xbcd2429d	-0.02566653
115	0xbccd5393	-0.025064265
116	0xbcbb8b52	-0.022893582
117	0xbcc4c889	-0.024021404
118	0xbcc1ca2a	-0.02365597
119	0xbcbeaa86	-0.023274671
120	0xbca7fbc0	-0.020505786
121	0xbcb0d1fc	-0.021584503
122	0xbca9f279	-0.020745503
123	0xbcada8be	-0.021198627
124	0xbc9b61ea	-0.018967588
125	0xbc9e5894	-0.019329347
126	0xbc9a19b9	-0.018811094
127	0xbc97c3e1	-0.01852602
128	0xbc8d1ade	-0.017224725
129	0xbc8aedd7	-0.016959114
130	0xbc8a27cc	-0.01686468
131	0xbc912030	-0.017715544
132	0xbc7e8795	-0.015535255
133	0xbc81927e	-0.015816923
134	0xbc8172ab	-0.015801748
135	0xbc836eb8	-0.016044006
136	0xbc6a77ca	-0.0143107865
137	0xbc701333	-0.014653015
138	0xbc704fc2	-0.014667453
139	0xbc5a8e94	-0.013339657
140	0xbc664609	-0.014054784
141	0xbc6f48d8	-0.01460477
142	0xbc604c89	-0.013690122
143	0xbc14125b	-0.009037579
144	0xbc664e8e	-0.014056815
145	0xbc562e06	-0.013072496
146	0xbc617cdc	-0.013762679
147	0xbc50e79d	-0.012750533
148	0xbc5b3e96	-0.013381621
149	0xbc64ce29	-0.013965168
150	0xbc63e41c	-0.013909366
151	0xbc60b984	-0.013716105
152	0xbc53b801	-0.012922288
153	0xbc5bdd7c	-0.013419505
154	0xbc53b801	-0.012922288
155	0xbc61686e	-0.013757808
156	0xbcf0afcd	-0.029380703
157	0xbd3d37f9	-0.046195958
158	0xbd66f794	-0.056388453
159	0xbd022459	-0.031772945
160	0xba80436f	-0.0009785722
161	0xbd3d0cad	-0.046154667
162	0xbd3d76a0	-0.046255708
163	0xbbf4c276	-0.0074694706
164	0x3d220dbd	0.039563883
165	0xbce362dc	-0.0277571
166	0xbce4c106	-0.027924072
167	0x3ceddb72	0.029035304
168	0x3dc8cb8b	0.09804448
169	0x3a3fd8bd	0.00073183683
170	0xba86f43f	-0.001029618
171	0x3d974734	0.07386628
172	0x3e2aefce	0.1669304
173	0x3d2a537f	0.041583534
174	0x3d2751a4	0.040849343
175	0x3e006210	0.12537408
176	0x3e7e0252	0.24805573
177	0x3db99df9	0.09063334
178	0x3dc5addc	0.09652302
179	0x3e3a4b70	0.1819284
180	0x3eaf3c5e	0.34225744
181	0x3e28ebed	0.16496249
182	0x3e281d11	0.16417338
183	0x3e742c9f	0.23845147
184	0x3edddabd	0.43330947
185	0x3e7f28b5	0.24917872
186	0x3e81273d	0.2522525
187	0x3e98a8b1	0.298162
188	0x3f04ba4a	0.51846755
189	0x3ead9025	0.33899036
190	0x3eb08c9a	0.3448227
191	0x3eb8a983	0.36066827
192	0x3f17a136	0.59230363
193	0x3eda5726	0.42644614
194	0x3edcc3c2	0.431181
195	0x3edff143	0.43738756
196	0x3f0194a2	0.5061742
197	0x3f01eed5	0.50755054
198	0x3f00de57	0.50339264
199	0x3f26bd03	0.6513216
200	0x3ed361f5	0.41285673
201	0x3f14dfbf	0.5815391
202	0x3ed3802e	0.4130873
203	0x3ed2432c	0.41066873
204	0x3e9d8526	0.30765647
205	0x3efdd348	0.49575257
206	0x3e9ef4a3	0.31046018
207	0x3ea7c723	0.32769117
208	0x3e4f4396	0.20240626
209	0x3ec8d5ec	0.3922571
210	0x3e4c3d5e	0.19945285
211	0x3e7d6c0b	0.24748246
212	0x3dd98776	0.1062154
213	0x3e8c7056	0.27429456
214	0x3de4829c	0.11157724
215	0x3e352cea	0.17692915
216	0x3d14ecd4	0.03635867
217	0x3e2b7596	0.16744074
218	0x3d2cc6d7	0.042181816
219	0x3de17cf3	0.1101016
220	0x3d4f798f	0.050653037
221	0x3dab7f85	0.08373932
222	0xbb8e72b1	-0.0043471684
223	0x3d6309b7	0.055429187
224	0x3dc173b9	0.094459005
225	0x3ccb9316	0.02485041
226	0x3be60e4a	0.0070207464
227	0x3dbe45e3	0.092906736
228	0x3e0b9bbc	0.13633627
229	0x3d1e42c5	0.038637895
230	0x3d131d2f	0.035916504
231	0x3e0aa795	0.1354049
232	0x3e3af0b6	0.18255886
233	0x3d910407	0.07080846
234	0x3d9644e3	0.07337358
235	0x3e388a81	0.18021585
236	0x3e10d316	0.14143023
237	0x3defc15e	0.11706804
238	0x3ddff019	0.10934467
239	0x3e6542eb	0.22388808
240	0x3e379058	0.17926157
241	0x3e1b6ace	0.15177462
242	0x3daee188	0.085391104
243	0x3e3c3a2c	0.18381566
244	0x3dd2ceda	0.1029336
245	0x3df83ba0	0.121207476
246	0x3dd79f35	0.10528413
247	0x3e60c47a	0.2194995
248	0x3d151308	0.036395103
249	0x3e19ec2f	0.15031503
250	0x3d19090c	0.037362143
251	0x3e191e04	0.14952856
252	0xbb5bb97e	-0.003352731
253	0x3d968c96	0.073510334
254	0xbb18d312	-0.0023319167
255	0x3d90a56a	0.070628
