learning_process/task_06/models/model-12-1.npy (npy, 24464 bytes, 1 tensors)

array f4 [1521, 4]
0.053661704 0.023627445 0.02228291 0.013539765 0.08736221 0.022198679 0.054217026 0.064959735
0.1 0.055961687 0.089325964 0.1342155 0.0 0.0 0.0 0.0
0.17867252 0.3439 0.26687565 0.18316588 0.09623941 0.26864865 0.18009639 0.09949238
0.03858635 0.18345858 0.09650436 0.035408463 0.001584484 0.10488817 0.037683107 0.00034691923
-0.018302312 0.042835873 0.0022068324 -0.01830632 -0.025013704 -0.00015652322 -0.019113813 -0.02473853
-0.022149978 -0.018777935 -0.025490066 -0.017001865 -0.02820797 -0.026405327 -0.022281637 -0.009692564
-0.031980123 -0.0226699 -0.029113568 -0.022066198 -0.033568256 -0.029979892 -0.033362765 -0.028894719
-0.034877475 -0.03369434 -0.034922875 -0.03359407 -0.035249703 -0.036227144 -0.03614479 -0.035919365
-0.030822353 -0.038354173 -0.03662649 -0.038521197 -0.01654146 -0.03843255 -0.03078901 -0.03688544
0.019174945 -0.031387217 -0.013451995 -0.030303122 0.07260758 -0.012048073 0.016029358 -0.011446025
0.17115828 0.025802614 0.08008347 0.0330683 0.32936984 0.10170521 0.18782441 0.11426594
0.4908239 0.2412515 0.36255056 0.2473987 0.66272134 0.4125842 0.54781336 0.42360583
0.8162838 0.60689867 0.72676116 0.61085725 0.91709906 0.78049105 0.86225283 0.7823893
0.9709479 0.8912963 0.94227225 0.8907586 0.9585784 0.95092326 0.97961634 0.9999939
0.9275816 0.9783648 0.9539337 0.86491483 0.7699718 0.94752806 0.9014638 0.8453943
0.55736125 0.7940093 0.69058836 0.6046618 0.33199143 0.6069168 0.47589323 0.3908253
0.15129718 0.41847602 0.2700066 0.21769163 0.044995364 0.23144418 0.12149896 0.104419924
-0.007874793 0.1086393 0.033340164 0.029222714 -0.027513048 0.027454099 -0.009654807 -0.008864923
-0.019416481 -0.009888177 -0.027131012 -0.015120058 -0.029040437 -0.026907688 -0.019976975 -0.002149534
-0.028658021 -0.01917226 -0.028660506 -0.016679922 0.057462778 0.014604966 0.022140175 -0.008877542
0.13278522 0.014647765 0.05350552 0.014252797 0.21771029 0.0639381 0.089246206 0.06420084
0.16453214 0.14109947 0.271 0.14110895 0.089990646 0.22535582 0.26623598 0.09409672
0.036982536 0.17213792 0.1709271 0.032823004 -0.00022150646 0.094672486 0.09720552 -2.1941469e-05
-0.017543713 0.03475859 0.036587525 -0.017163262 -0.023827946 -0.00026526517 0.0002223956 -0.023665776
-0.016198881 -0.018075751 -0.019228611 -0.015774006 -0.009859779 -0.025116626 -0.0255632 0.0024240608
-0.021615732 -0.015659424 -0.022367224 0.010749862 -0.027902732 -0.01018495 -0.029042007 -0.008433828
-0.032016426 -0.022360047 -0.032297004 -0.02070921 -0.03445385 -0.02967699 -0.035106916 -0.029214915
-0.035754763 -0.03463789 -0.03638423 -0.034490176 -0.0352736 -0.037592817 -0.036241945 -0.038136452
-0.02969561 -0.03956513 -0.0315075 -0.039225724 -0.014583333 -0.038000632 -0.013439541 -0.037693758
0.017377751 -0.030643202 0.015080164 -0.030061003 0.08338674 -0.009885858 0.083041176 -0.009789125
0.19959646 0.034879763 0.17592795 0.045763068 0.3557539 0.12627456 0.3501953 0.1317681
0.5254714 0.26674175 0.5253886 0.27550638 0.69827354 0.4450044 0.68760127 0.4424948
00000000: 60cc 5b3d 588e c13c a68a b63c e4d5 5d3c
00000010: f5ea b23d 01da b53c ac12 5e3d 9c09 853d
00000020: cdcc cc3d 1538 653d 88f0 b63d ca6f 093e
00000030: 0000 0000 0000 0000 0000 0000 0000 0000
00000040: eef5 363e a913 b03e eda3 883e d68f 3b3e
00000050: 2b19 c53d 518c 893e 306b 383e a9c2 cb3d
00000060: b80c 1e3d 91dc 3b3e 14a4 c53d 7708 113d
00000070: 76ae cf3a 9ccf d63d 9a59 1a3d b6e2 b539
00000080: bbee 95bc ab74 2f3d 81a0 103b 23f7 95bc
00000090: 8ae9 ccbc 6220 24b9 9294 9cbc 75a8 cabc
000000a0: df73 b5bc 2fd4 99bc 8bd0 d0bc 7f47 8bbc
000000b0: 6714 e7bc fc4f d8bc fb87 b6bc 8fcd 1ebc
000000c0: 97fd 02bd 3ab6 b9bc 947f eebc 2cc4 b4bc
000000d0: de7e 09bd 6498 f5bc 65a7 08bd 9eb4 ecbc
000000e0: afdb 0ebd 1403 0abd 4a0b 0fbd ef99 09bd
000000f0: fe61 10bd ea62 14bd 8f0c 14bd 2f20 13bd
00000100: 297f fcbc 4419 1dbd a905 16bd 67c8 1dbd
00000110: f581 87bc 736b 1dbd 3c39 fcbc 3015 17bd
00000120: c614 9d3c e28f 00bd c265 5cbc 413e f8bc
00000130: 48b3 943d 4865 45bc 0050 833c 1c88 3bbc
00000140: 1e44 2f3e 0160 d33c cd02 a43d a072 073d
00000150: 2aa3 a83e d24a d03d 0b55 403e 4304 ea3d
00000160: 454d fb3e a20a 773e 3aa0 b93e 1656 7d3e
00000170: 1ba8 293f 3c3e d33e 7f3d 0c3f dde2 d83e
00000180: faf7 503f b65d 1b3f 050d 3a3f 2461 1c3f
00000190: 01c7 6a3f 43ce 473f 9abc 5c3f aa4a 483f
000001a0: 0b90 783f ff2b 643f c138 713f c108 643f
000001b0: 6565 753f b56f 733f 23c8 7a3f 9aff 7f3f
000001c0: fd75 6d3f 1e76 7a3f 0035 743f 0f6b 5d3f
000001d0: df1c 453f 3391 723f 55c6 663f c36b 583f
000001e0: 3aaf 0e3f 3244 4b3f 66ca 303f 1ecb 1a3f
000001f0: c8fa a93e e65e 1b3f 47a8 f33e 411a c83e
00000200: a6ed 1a3e 7d42 d63e 4e3e 8a3e 8eea 5e3e
00000210: 0f4d 383d b4ff 6c3e 72d4 f83d 1dda d53d
00000220: 4705 01bc 487e de3d b28f 083d 7964 ef3c
00000230: 0b63 e1bc 6be7 e03c 322f 1ebc 2f3e 11bc
00000240: 500f 9fbc 0502 22bc db41 debc 1fba 77bc
00000250: 36e6 edbc 836d dcbc c1a6 a3bc 32df 0cbb
00000260: 3ac4 eabc 250f 9dbc 70c9 eabc 55a4 88bc
00000270: 175e 6b3d ab49 6f3c 505f b53c 1c73 11bc
00000280: d9f8 073e 2efd 6f3c 9b28 5b3d 9084 693c
00000290: 72ef 5e3e fbf1 823d b7c6 b63d bb7b 833d
000002a0: 1d7b 283e 617c 103e 83c0 8a3e dd7e 103e
000002b0: 044d b83d adc3 663e 1550 883e c8b5 c03d
000002c0: 007b 173d ec44 303e 8407 2f3e 6a71 063d
000002d0: 3044 68b9 a6e3 c13d b013 c73d f20e b8b7
000002e0: d5b7 8fbc 065f 0e3d cddc 153d f899 8cbc
000002f0: d332 c3bc 4a13 8bb9 dd32 6939 bbde c1bc
00000300: 84b3 84bc 9913 94bc 5285 9dbc 7d38 81bc
00000310: e98a 21bc 62c1 cdbc ea69 d1bc fedc 1e3b
00000320: 7a13 b1bc 3148 80bc 783b b7bc 3020 303c
00000330: 4594 e4bc c7de 26bc 81e9 edbc 0a2e 0abc
00000340: a823 03bd 6b2c b7bc dd49 04bd 5ca6 a9bc
00000350: 7b1f 0dbd 291d f3bc 45cc 0fbd 1e54 efbc
00000360: 9673 12bd 76e0 0dbd a107 15bd 9245 0dbd
00000370: 0d7b 10bd edfa 19bd 6f72 14bd f834 1cbd
00000380: 3544 f3bc 0c0f 22bd 020e 01bd 27ab 20bd
00000390: efee 6ebc 8da6 1bbd 8531 5cbc c564 1abd
000003a0: c95b 8e3c 7407 fbbc cb12 773c 7e42 f6bc
000003b0: abc6 aa3d 4bf8 21bc 7e11 aa3d 9162 20bc
000003c0: 0463 4c3e 15de 0e3d 7526 343e 0e72 3b3d
000003d0: 6025 b63e 1e4e 013e cc4c b33e 38ee 063e
000003e0: 4b85 063f 6092 883e de7f 063f 2c0f 8d3e
000003f0: 0ec2 323f 9ed7 e33e a306 303f ae8e e23e
