learning_process/task_09/models/model-9-1.npy (npy, 24464 bytes, 1 tensors)

array f4 [1521, 4]
000000 00 00 00 00 00 00 00 00 00 00 00 00 00 00 00 00
       0.0 0.0 0.0 0.0
000010 00 00 00 00 00 00 00 00 00 00 00 00 00 00 00 00
       0.0 0.0 0.0 0.0
000020 00 00 00 00 00 00 00 00 00 00 00 00 00 00 00 00
       0.0 0.0 0.0 0.0
000030 00 00 00 00 00 00 00 00 00 00 00 00 00 00 00 00
       0.0 0.0 0.0 0.0
000040 6f 12 83 ba 00 00 00 00 00 00 00 00 00 00 00 00
       -0.001 0.0 0.0 0.0
000050 a8 01 03 bb 6f 12 83 ba 6f 12 83 ba 6f 12 83 ba
       -0.001999 -0.001 -0.001 -0.001
000060 81 d8 08 bb 6c 09 f9 ba a8 01 03 bb a8 01 03 bb
       -0.0020881 -0.0019 -0.001999 -0.001999
000070 a8 01 03 bb a8 01 03 bb a8 01 03 bb 33 17 38 bb
       -0.001999 -0.001999 -0.001999 -0.002809
000080 a8 01 03 bb 33 17 38 bb a8 01 03 bb a8 01 03 bb
       -0.001999 -0.002809 -0.001999 -0.001999
000090 33 17 38 bb 0d ee 3d bb a8 01 03 bb 56 69 44 bb
       -0.002809 -0.0028981 -0.001999 -0.0029970012
0000a0 56 69 44 bb 7d 8b 73 bb 56 69 44 bb a8 b2 7e bb
       -0.0029970012 -0.0037162 -0.0029970012 -0.0038863812
0000b0 23 e0 82 bb 98 c8 9c bb 23 e0 82 bb eb 9f 9d bb
       -0.0039940043 -0.004784655 -0.0039940043 -0.0048103235
0000c0 b8 cd a3 bb 00 35 b5 bb 3e 83 a3 bb 5f be a3 bb
       -0.004998889 -0.0055299997 -0.0049900105 -0.0049970592
0000d0 69 41 ca bb 76 18 da bb f7 3b e4 bb 28 03 e4 bb
       -0.0061723483 -0.006655748 -0.006965156 -0.006958384
0000e0 11 4e ed bb 4d ab f9 bb 65 b0 e4 bb d6 7b 02 bc
       -0.0072419723 -0.0076192976 -0.0069790357 -0.007964095
0000f0 3c 59 08 bc cb be 0c bc dc f7 1f bc 17 f7 01 bc
       -0.008322056 -0.00859041 -0.009763684 -0.007932446
000100 60 68 27 bc 8c 03 19 bc 60 7a 22 bc 3e b1 27 bc
       -0.010217756 -0.009339225 -0.009916872 -0.010235129
000110 23 5f 20 bc af 0e 2f bc 83 e9 1f bc 58 9c 22 bc
       -0.009788307 -0.010684653 -0.009760263 -0.009924971
000120 f1 83 1f bc ad 1b 2b bc 96 b1 12 bc 02 26 14 bc
       -0.009736047 -0.01044361 -0.008953473 -0.009042265
000130 78 b4 1f bc af 60 1e bc 00 b3 22 bc a5 67 24 bc
       -0.009747617 -0.009666606 -0.009930372 -0.010034476
000140 c4 2c 1c bc bd d8 22 bc 19 de 12 bc 0e 0c 1b bc
       -0.009532157 -0.00993937 -0.008964085 -0.009463323
000150 89 5b 0a bc 7e 69 18 bc 19 de 12 bc 5d cd 0f bc
       -0.008444675 -0.009302495 -0.008964085 -0.00877699
000160 aa 21 fd bb b5 eb 03 bc 3b 9d 02 bc cb 9d 0c bc
       -0.0077249603 -0.008051802 -0.007972057 -0.008582543
000170 a2 fe d9 bb 8d d7 e6 bb 65 b0 e4 bb 4d ee e7 bb
       -0.006652669 -0.0070447386 -0.0069790357 -0.007077968
000180 ab bd ba bb 86 9f c3 bb 3e 83 a3 bb e7 f4 cb bb
       -0.0056988797 -0.0059699444 -0.0049900105 -0.006224263
000190 84 12 9d bb 7c b0 a6 bb 23 e0 82 bb 44 e7 a2 bb
       -0.004793467 -0.0050869565 -0.0039940043 -0.0049714167
0001a0 ec 2f 74 bb eb fd 88 bb a5 46 7f bb 25 80 85 bb
       -0.003726001 -0.00418066 -0.003895202 -0.004074114
0001b0 0d ee 3d bb ca 53 0f bb 56 69 44 bb 33 17 38 bb
       -0.0028981 -0.002187001 -0.0029970012 -0.002809
0001c0 81 d8 08 bb 17 a6 03 bb 56 69 44 bb 0d ee 3d bb
       -0.0020881 -0.002008801 -0.0029970012 -0.0028981
0001d0 a8 01 03 bb f0 7c 09 bb 6f 12 83 ba a8 01 03 bb
       -0.001999 -0.002097901 -0.001 -0.001999
0001e0 6c 09 f9 ba a8 01 03 bb a8 01 03 bb 6c 09 f9 ba
       -0.0019 -0.001999 -0.001999 -0.0019
0001f0 6f 12 83 ba a8 01 03 bb 6f 12 83 ba 6c 09 f9 ba
       -0.001 -0.001999 -0.001 -0.0019
000200 6f 12 83 ba 6f 12 83 ba 6f 12 83 ba a8 01 03 bb
       -0.001 -0.001 -0.001 -0.001999
000210 6f 12 83 ba 6f 12 83 ba 6f 12 83 ba f0 7c 09 bb
       -0.001 -0.001 -0.001 -0.002097901
000220 00 00 00 00 52 0c 90 ba 00 00 00 00 6f 12 83 ba
       0.0 -0.001099 0.0 -0.001
000230 00 00 00 00 00 00 00 00 00 00 00 00 00 00 00 00
       0.0 0.0 0.0 0.0
000240 00 00 00 00 00 00 00 00 00 00 00 00 00 00 00 00
       0.0 0.0 0.0 0.0
000250 00 00 00 00 00 00 00 00 00 00 00 00 00 00 00 00
       0.0 0.0 0.0 0.0
000260 00 00 00 00 00 00 00 00 00 00 00 00 00 00 00 00
       0.0 0.0 0.0 0.0
000270 00 00 00 00 00 00 00 00 00 00 00 00 00 00 00 00
       0.0 0.0 0.0 0.0
000280 00 00 00 00 00 00 00 00 00 00 00 00 00 00 00 00
       0.0 0.0 0.0 0.0
000290 00 00 00 00 00 00 00 00 00 00 00 00 00 00 00 00
       0.0 0.0 0.0 0.0
0002a0 00 00 00 00 00 00 00 00 00 00 00 00 00 00 00 00
       0.0 0.0 0.0 0.0
0002b0 6f 12 83 ba 00 00 00 00 00 00 00 00 00 00 00 00
       -0.001 0.0 0.0 0.0
0002c0 6f 12 83 ba 6f 12 83 ba 6f 12 83 ba 6f 12 83 ba
       -0.001 -0.001 -0.001 -0.001
0002d0 52 0c 90 ba 6f 12 83 ba 17 a6 03 bb a8 01 03 bb
       -0.001099 -0.001 -0.002008801 -0.001999
0002e0 a8 01 03 bb a8 01 03 bb a8 01 03 bb 6c 09 f9 ba
       -0.001999 -0.001999 -0.001999 -0.0019
0002f0 f0 7c 09 bb a8 01 03 bb a8 01 03 bb a8 01 03 bb
       -0.002097901 -0.001999 -0.001999 -0.001999
000300 ee 10 0a bb 0d ee 3d bb 56 69 44 bb e7 c4 43 bb
       -0.002106722 -0.0028981 -0.0029970012 -0.0029872002
000310 50 b8 50 bb ec 2f 74 bb 44 06 49 bb e7 c4 43 bb
       -0.003184814 -0.003726001 -0.00306739 -0.0029872002
000320 dc 80 88 bb 4a 71 79 bb 89 22 a3 bb 4f 2e b8 bb
       -0.004165752 -0.003806191 -0.004978482 -0.005620755
000330 6c 91 ac bb 6b 74 ba bb d3 25 a1 bb 4f df a5 bb
       -0.005266359 -0.0056901476 -0.004917839 -0.005062021
000340 d9 94 cc bb fd dd d6 bb d6 05 e0 bb b8 bf e4 bb
       -0.00624333 -0.006557225 -0.006836633 -0.0069808625
000350 f9 bd ee bb 2a d9 08 bc f9 af 02 bc 8b 19 ee bb
       -0.00728583 -0.008352557 -0.007976525 -0.0072662286
000360 32 82 06 bc 84 fe 0a bc 89 58 04 bc 51 36 07 bc
       -0.008209752 -0.008483533 -0.008077749 -0.008252696
000370 41 b3 15 bc ce 49 1b bc 2f f9 2b bc 90 dc 15 bc
       -0.009136976 -0.009478046 -0.010496422 -0.0091468245
000380 87 1f 25 bc d8 b7 29 bc b4 9d 21 bc ef c6 24 bc
       -0.0100783175 -0.010358773 -0.0098642595 -0.010057195
000390 88 55 15 bc 17 57 2d bc 60 4b 22 bc 4d 72 16 bc
       -0.0091146305 -0.010579846 -0.009905666 -0.009182525
0003a0 04 a5 1b bc 19 63 15 bc 0b 84 22 bc 46 af 24 bc
       -0.009499792 -0.009117865 -0.009919177 -0.010051554
0003b0 35 af 1e bc eb 5f 10 bc 8d bf 1d bc b3 d1 18 bc
       -0.009685327 -0.008811931 -0.009628189 -0.00932734
0003c0 47 f9 10 bc 09 34 12 bc 35 3d 0f bc a6 82 16 bc
       -0.008848495 -0.008923539 -0.00874262 -0.009186422
0003d0 44 62 0b bc cc 35 08 bc 10 9e 14 bc a9 43 04 bc
       -0.008507315 -0.008313607 -0.009070888 -0.008072772
0003e0 6e 53 f0 bb a0 4b ee bb 7e 7a e4 bb c1 7d e2 bb
       -0.0073341643 -0.007272199 -0.00697261 -0.0069119637
0003f0 75 4e ba bb e0 99 c2 bb a0 a0 c6 bb 02 e7 c2 bb
       -0.0056856223 -0.0059387535 -0.0060616285 -0.0059479484
