learning_process/task_10/models/model-2-0.npy (npy, 24464 bytes, 1 tensors)

array f4 [1521, 4]
0	0xbbff0949	-0.0077830893
1	0xbc7aded8	-0.015311919
2	0xbc78571c	-0.015157487
3	0xbc0d526c	-0.008625608
4	0x3c9ab482	0.018884901
5	0xbc76e833	-0.015070009
6	0xbbfaa62a	-0.007649203
7	0x3ca13241	0.019677283
8	0x3db8bdff	0.09020614
9	0xbc00fa32	-0.007872151
10	0x3c911f09	0.017714994
11	0x3dbd955c	0.09257004
12	0x3e719472	0.23591784
13	0x3c9f317e	0.01943278
14	0x3db48971	0.08815277
15	0x3e7e9df1	0.24864937
16	0x3f065396	0.5247129
17	0x3db1523c	0.08658263
18	0x3e5d7d37	0.21629797
19	0x3f0132d4	0.5046818
20	0x3e754a5e	0.2395415
21	0x3e8034a2	0.25040156
22	0x3f040564	0.51570725
23	0x3f554e71	0.8332282
24	0x3d8f8912	0.07008566
25	0x3f012578	0.504478
26	0x3e5f841c	0.2182774
27	0x3ef1b002	0.47204596
28	0x3bb2d846	0.0054579107
29	0x3e611ff6	0.21984848
30	0x3d817802	0.06321718
31	0x3e462831	0.1935127
32	0xbc2cb7e5	-0.010541891
33	0x3d4a508c	0.04939322
34	0x3b7acf06	0.0038270368
35	0x3d3d4312	0.04620654
36	0xbc42c4bf	-0.011887728
37	0x3abcc9dd	0.0014403422
38	0xbc1f989a	-0.009740973
39	0xba16d079	-0.0005753111
40	0xbc34b4f1	-0.011029468
41	0xbc147256	-0.009060463
42	0xbc308577	-0.010774008
43	0xbc189039	-0.009311729
44	0xbc24aa93	-0.010050434
45	0xbc2825f0	-0.010262951
46	0xbc22f1fa	-0.009945387
47	0xbc215b7b	-0.009848471
48	0xbc0a34bd	-0.008435425
49	0xbc1b4e74	-0.009479154
50	0xbc12de19	-0.008964085
51	0xbc129bf3	-0.008948314
52	0xbbef5d64	-0.007304834
53	0xbbf7014f	-0.007537998
54	0xbbe4b065	-0.0069790357
55	0xbc031703	-0.008001092
56	0xbbb58fa6	-0.005540806
57	0xbbcc2835	-0.006230379
58	0xbbc41dfe	-0.0059850207
59	0xbbc55ff8	-0.0060234033
60	0xbb9892e2	-0.0046561817
61	0xbb8ba60f	-0.004261739
62	0xbb82e023	-0.0039940043
63	0xbb82d7ff	-0.003993034
64	0xbb738b7d	-0.0037162
65	0xbb55f9ae	-0.0032650041
66	0xbb446956	-0.0029970012
67	0xbb49aab3	-0.003077191
68	0xbb3e927c	-0.002907901
69	0xbb0f53ca	-0.002187001
70	0xbb0301a8	-0.001999
71	0xbb3e927c	-0.002907901
72	0xbb43c4e7	-0.0029872002
73	0xbb0eaf5b	-0.0021772
74	0xbb3dee0d	-0.0028981
75	0xbb0301a8	-0.001999
76	0xbb0301a8	-0.001999
77	0xbb03a617	-0.002008801
78	0xbb0301a8	-0.001999
79	0xbb381733	-0.002809
80	0xbaf9096c	-0.0019
81	0xbb0301a8	-0.001999
82	0xba83126f	-0.001
83	0xba83126f	-0.001
84	0xbb0301a8	-0.001999
85	0xba900c52	-0.001099
86	0xbb0301a8	-0.001999
87	0xbaf9096c	-0.0019
88	0xbaf9096c	-0.0019
89	0xbb0301a8	-0.001999
90	0xbb0301a8	-0.001999
91	0xbb0301a8	-0.001999
92	0xba83126f	-0.001
93	0xbb0301a8	-0.001999
94	0xba83126f	-0.001
95	0xba83126f	-0.001
96	0xba83126f	-0.001
97	0xba900c52	-0.001099
98	0xba83126f	-0.001
99	0xba83126f	-0.001
100	0x00000000	0.0
101	0xba83126f	-0.001
102	0xba83126f	-0.001
103	0xba83126f	-0.001
104	0x00000000	0.0
105	0x00000000	0.0
106	0x00000000	0.0
107	0x00000000	0.0
108	0x00000000	0.0
109	0x00000000	0.0
110	0x00000000	0.0
111	0x00000000	0.0
112	0x00000000	0.0
113	0x00000000	0.0
114	0x00000000	0.0
115	0x00000000	0.0
116	0x00000000	0.0
117	0x00000000	0.0
118	0x00000000	0.0
119	0x00000000	0.0
120	0x00000000	0.0
121	0x00000000	0.0
122	0x00000000	0.0
123	0x00000000	0.0
124	0x00000000	0.0
125	0x00000000	0.0
126	0x00000000	0.0
127	0x00000000	0.0
128	0x00000000	0.0
129	0x00000000	0.0
130	0x00000000	0.0
131	0x00000000	0.0
132	0x00000000	0.0
133	0x00000000	0.0
134	0x00000000	0.0
135	0x00000000	0.0
136	0x00000000	0.0
137	0x00000000	0.0
138	0x00000000	0.0
139	0x00000000	0.0
140	0x00000000	0.0
141	0x00000000	0.0
142	0x00000000	0.0
143	0x00000000	0.0
144	0x00000000	0.0
145	0x00000000	0.0
146	0x00000000	0.0
147	0x00000000	0.0
148	0x00000000	0.0
149	0x00000000	0.0
150	0x00000000	0.0
151	0x00000000	0.0
152	0x00000000	0.0
153	0x00000000	0.0
154	0x00000000	0.0
155	0x00000000	0.0
156	0x3ca909bf	0.02063453
157	0xbc08b189	-0.008343109
158	0xbc797900	-0.015226603
159	0xbc7c4969	-0.015398362
160	0x3db9daeb	0.090749584
161	0xbc116b99	-0.008875751
162	0xbbd27fbd	-0.006423919
163	0xbbc7a633	-0.0060928105
164	0x3e7d4ad9	0.24735583
165	0x3c69fd84	0.014281634
166	0x3c9f9487	0.019480003
167	0x3c9c4d1a	0.019079734
168	0x3f0918ea	0.5355364
169	0x3da4e99b	0.08052369
170	0x3da9ceca	0.08291395
171	0x3debe786	0.11518769
172	0x3f599366	0.8499054
173	0x3e6fb877	0.23410212
174	0x3e7baae1	0.24576904
175	0x3e85a4cf	0.261023
176	0x3efefb4a	0.49801093
177	0x3f066aa9	0.525065
178	0x3f02fb90	0.51165104
179	0x3f009fe2	0.5024396
180	0x3e595445	0.21223553
181	0x3f4b4ab8	0.79410887
182	0x3e5e2aee	0.21696064
183	0x3e4e0ff6	0.20123276
184	0x3d1fc0de	0.03900229
185	0x3ee080e7	0.43848345
186	0x3d9b2afc	0.07576558
187	0x3d84d019	0.06485004
188	0xba92c924	-0.0011198861
189	0x3e2af3b6	0.16694531
190	0x3a88afe5	0.0010428397
191	0x3b85e397	0.0040859687
192	0xbc255409	-0.010090836
193	0x3cf3a8df	0.02974361
194	0xbc1d16aa	-0.009587923
195	0xbc10a4f9	-0.008828395
196	0xbc33ad2d	-0.010966581
197	0xbb1584aa	-0.002281467
198	0xbc309314	-0.010777254
199	0xbc2eb8bc	-0.010664161
200	0xbc2658df	-0.010153024
201	0xbc0af71f	-0.00848177
202	0xbc206793	-0.009790319
203	0xbc235355	-0.009968598
204	0xbc156921	-0.009119303
205	0xbc09f376	-0.008419862
206	0xbc11892c	-0.008882802
207	0xbc125aac	-0.008932751
208	0xbc061e7b	-0.008185978
209	0xbbf41ddc	-0.0074498486
210	0xbc023d0a	-0.007949123
211	0xbc018720	-0.0079057515
212	0xbbd1edd8	-0.006406527
213	0xbbd8dedf	-0.006618365
214	0xbbc24249	-0.005928312
215	0xbbc3190f	-0.005953915
216	0xbb9d1284	-0.004793467
217	0xbb8e4bef	-0.004342548
218	0xbb83321d	-0.0040037767
219	0xbba2edfc	-0.0049722176
220	0xbb79714a	-0.003806191
221	0xbb50a808	-0.0031838436
222	0xbb3dee0d	-0.0028981
223	0xbb824c25	-0.0039763623
224	0xbb3dee0d	-0.0028981
225	0xbb0301a8	-0.001999
226	0xbb3dee0d	-0.0028981
227	0xbb450d9a	-0.0030067922
228	0xbb43c4e7	-0.0029872002
229	0xbb0301a8	-0.001999
230	0xbb0301a8	-0.001999
231	0xbb0301a8	-0.001999
232	0xbaf9096c	-0.0019
233	0xbb0301a8	-0.001999
234	0xbb0301a8	-0.001999
235	0xbb43c4e7	-0.0029872002
236	0xba83126f	-0.001
237	0xba900c52	-0.001099
238	0xbaf9096c	-0.0019
239	0xba83126f	-0.001
240	0xba83126f	-0.001
241	0xba83126f	-0.001
242	0xba900c52	-0.001099
243	0xbb0301a8	-0.001999
244	0xba83126f	-0.001
245	0xba83126f	-0.001
246	0xbb0301a8	-0.001999
247	0xbb0301a8	-0.001999
248	0xba83126f	-0.001
249	0xba900c52	-0.001099
250	0xba83126f	-0.001
251	0x00000000	0.0
252	0xba83126f	-0.001
253	0x00000000	0.0
254	0xba83126f	-0.001
255	0xba83126f	-0.001
