learning_process/task_10/models/model-8-2.npy (npy, 24464 bytes, 1 tensors)

array f4 [1521, 4]
0.0 0.0 0.0 0.0 0.0 0.0 0.0 0.0
0.0 0.0 0.0 0.0 0.0 0.0 0.0 -0.001
-0.001 0.0 -0.001 -0.001 -0.001 -0.001 -0.001 0.0
-0.001 -0.001 -0.001 0.0 -0.001 -0.001 -0.001 -0.001
0.0 -0.001 -0.001 -0.0019 -0.001099 -0.001 -0.001 0.0
-0.0020881 -0.0019 -0.001999 -0.001999 -0.003166202 -0.002809 -0.001999 -0.001999
-0.0029872002 -0.0037162 -0.0029970012 -0.003005822 -0.003077191 -0.0036378712 -0.0029970012 -0.0029255429
-0.004056384 -0.003806191 -0.0039940043 -0.0047308067 -0.0052543962 -0.0055299997 -0.0048913066 -0.004811197
-0.0077352086 -0.0065962183 -0.0069790357 -0.0069393534 -0.011041416 -0.008866514 -0.008964085 -0.008829554
-0.012013065 -0.011613167 -0.010945166 -0.011707008 -0.013051037 -0.0129787605 -0.012793336 -0.013374094
-0.014026961 -0.014798434 -0.014895457 -0.015454551 -0.015215468 -0.016626278 -0.01582959 -0.015940275
-0.01741296 -0.017879678 -0.017831014 -0.017677447 -0.019412143 -0.019668883 -0.019811139 -0.019600801
-0.021056145 -0.021652477 -0.021498853 -0.021918964 -0.022117618 -0.02241683 -0.022720741 -0.02294219
-0.023125613 -0.023054171 -0.022548059 -0.02386597 -0.024176192 -0.024121003 -0.024636103 -0.024871534
-0.024221644 -0.025558826 -0.025394954 -0.02498742 -0.021074386 -0.026613297 -0.025285745 -0.02179018
-0.0049792365 -0.026112128 -0.02129318 -0.009726333 0.027167022 -0.02076671 -0.0063153757 0.019615397
0.08547968 -0.005056082 0.029274227 0.08369676 0.16371647 0.033882424 0.088799976 0.16288012
0.23064616 0.09866279 0.1563106 0.23486395 0.14981996 0.15618433 0.2339661 0.30536923
0.08249442 0.23493908 0.1542284 0.24161829 0.029246598 0.15840812 0.079464756 0.15392745
0.031750306 0.08444105 0.0303755 0.08366041 0.0 0.0 0.0 0.0
0.0 0.0 0.0 0.0 -0.001 0.0 0.0 0.0
0.0 -0.001 -0.001 -0.001 -0.001 -0.001 -0.001 0.0
0.0 -0.001 0.0 -0.0019 0.0 -0.001 0.0 0.0
0.0 -0.001 -0.001 0.0 0.0 -0.001 -0.001 0.0
-0.001 0.0 0.0 0.0 -0.001999 -0.001 -0.0019 -0.0019
-0.001999 -0.001999 -0.0020881 -0.001999 -0.002187001 -0.0028981 -0.0028981 -0.003077191
-0.0032473623 -0.003904023 -0.00306739 -0.003895202 -0.0043473267 -0.0045513017 -0.003904023 -0.0038159823
-0.005537677 -0.004702781 -0.0050806757 -0.004992559 -0.006462403 -0.006505287 -0.006843482 -0.0068909964
-0.008819525 -0.008009523 -0.008777267 -0.009781036 -0.010871751 -0.010839414 -0.011196589 -0.010711011
-0.01182523 -0.012524095 -0.012765635 -0.0127451755 -0.013999352 -0.013789586 -0.014597002 -0.013871962
-0.01587489 -0.015360411 -0.015851013 -0.015762514 -0.018282127 -0.017245265 -0.01765606 -0.017802468
-0.019944191 -0.019204589 -0.01932553 -0.020659633 -0.021163343 -0.021813905 -0.022600377 -0.02142765
00000000: 0000 0000 0000 0000 0000 0000 0000 0000
00000010: 0000 0000 0000 0000 0000 0000 0000 0000
00000020: 0000 0000 0000 0000 0000 0000 0000 0000
00000030: 0000 0000 0000 0000 0000 0000 6f12 83ba
00000040: 6f12 83ba 0000 0000 6f12 83ba 6f12 83ba
00000050: 6f12 83ba 6f12 83ba 6f12 83ba 0000 0000
00000060: 6f12 83ba 6f12 83ba 6f12 83ba 0000 0000
00000070: 6f12 83ba 6f12 83ba 6f12 83ba 6f12 83ba
00000080: 0000 0000 6f12 83ba 6f12 83ba 6c09 f9ba
00000090: 520c 90ba 6f12 83ba 6f12 83ba 0000 0000
000000a0: 81d8 08bb 6c09 f9ba a801 03bb a801 03bb
000000b0: 0e80 4fbb 3317 38bb a801 03bb a801 03bb
000000c0: e7c4 43bb 7d8b 73bb 5669 44bb 53fd 44bb
000000d0: b3aa 49bb 5a69 6ebb 5669 44bb 77ba 3fbb
000000e0: 6aeb 84bb 4a71 79bb 23e0 82bb e204 9bbb
000000f0: 122d acbb 0035 b5bb 4147 a0bb 3fa7 9dbb
00000100: a277 fdbb 1725 d8bb 65b0 e4bb 8463 e3bb
00000110: 0ee7 34bc db44 11bc 19de 12bc d5a9 10bc
00000120: 72d2 44bc 2745 3ebc 5b53 33bc c0ce 3fbc
00000130: 04d4 55bc dea4 54bc 249b 51bc 041f 5bbc
00000140: 57d1 65bc 2275 72bc 130c 74bc 1635 7dbc
00000150: 4c4a 79bc d533 88bc 0ead 81bc 2e95 82bc
00000160: a0a5 8ebc 6778 92bc 5912 92bc 4bd0 90bc
00000170: 3706 9fbc a320 a1bc f84a a2bc dc91 a0bc
00000180: f07d acbc 8960 b1bc 5d1e b0bc 668f b3bc
00000190: 0230 b5bc 80a3 b7bc d920 babc 42f1 bbbc
000001a0: ed71 bdbc 1adc bcbc b5b6 b8bc 9182 c3bc
000001b0: 260d c6bc 6999 c5bc a7d1 c9bc 63bf cbbc
000001c0: 786c c6bc be60 d1bc 1409 d0bc 6bb2 ccbc
000001d0: 31a4 acbc 2104 dabc 0d24 cfbc 5281 b2bc
000001e0: dd28 a3bb 1ae9 d5bc 096f aebc 335b 1fbc
000001f0: 608d de3c f31e aabc 36f1 cebb 78b0 a03c
00000200: f80f af3d 7dad a5bb 81d0 ef3c 3569 ab3d
00000210: 4aa5 273e 4cc8 0a3d c3dc b53d 0cca 263e
00000220: 822e 6c3e b80f ca3d e30f 203e 2d80 703e
00000230: 676a 193e c9ee 1f3e cf94 6f3e 5b59 9c3e
00000240: d6f2 a83d df93 703e 0dee 1d3e c96a 773e
00000250: 9096 ef3c bd35 223e 6bbe a23d 289f 1d3e
00000260: 9c0c 023d 6eef ac3d 0ad6 f83c 2656 ab3d
00000270: 0000 0000 0000 0000 0000 0000 0000 0000
00000280: 0000 0000 0000 0000 0000 0000 0000 0000
00000290: 6f12 83ba 0000 0000 0000 0000 0000 0000
000002a0: 0000 0000 6f12 83ba 6f12 83ba 6f12 83ba
000002b0: 6f12 83ba 6f12 83ba 6f12 83ba 0000 0000
000002c0: 0000 0000 6f12 83ba 0000 0000 6c09 f9ba
000002d0: 0000 0000 6f12 83ba 0000 0000 0000 0000
000002e0: 0000 0000 6f12 83ba 6f12 83ba 0000 0000
000002f0: 0000 0000 6f12 83ba 6f12 83ba 0000 0000
00000300: 6f12 83ba 0000 0000 0000 0000 0000 0000
00000310: a801 03bb 6f12 83ba 6c09 f9ba 6c09 f9ba
00000320: a801 03bb a801 03bb 81d8 08bb a801 03bb
00000330: ca53 0fbb 0dee 3dbb 0dee 3dbb b3aa 49bb
00000340: b3d1 54bb a3da 7fbb 4406 49bb a546 7fbb
00000350: 0574 8ebb 1623 95bb a3da 7fbb 8f15 7abb
00000360: 6775 b5bb c919 9abb cc7b a6bb 9f98 a3bb
00000370: 91c2 d3bb 4d2a d5bb 4a3f e0bb decd e1bb
00000380: c57f 10bc 603a 03bc 87ce 0fbc a340 20bc
00000390: 6e1f 32bc cc97 31bc e671 37bc 3c7d 2fbc
000003a0: 9cbe 41bc dd31 4dbc f426 51bc 24d1 50bc
000003b0: 8a5d 65bc b7ed 61bc 4428 6fbc 3a47 63bc
000003c0: 0f0c 82bc 3caa 7bbc fcd9 81bc 6320 81bc
000003d0: 66c4 95bc f145 8dbc 71a3 90bc 7bd6 91bc
000003e0: 0062 a3bc f152 9dbc 9350 9ebc 643e a9bc
000003f0: bf5e adbc 13b3 b2bc 6d24 b9bc 0a89 afbc
