learning_process/task_10/models/model-3-1.npy (npy, 24464 bytes, 1 tensors)

array f4 [1521, 4]
0.0 0.0 0.0 -0.001 -0.001099 -0.001 -0.001 0.0
-0.0016072826 -0.001 -0.001 -0.0019117711 0.009876096 -0.00271 -0.0027580468 0.002860433
0.08298008 -0.0034141468 0.01235431 0.09603647 0.018170873 0.015229641 0.12012846 0.468559
-0.0020396295 0.10725577 0.01596179 0.1423427 -0.0066935723 0.022282792 -0.0020346101 0.016666604
-0.00741792 -0.0030689095 -0.006761156 -0.0044602347 -0.0088561 -0.008000891 -0.00889995 -0.008691528
-0.00994965 -0.010020373 -0.009771071 -0.009823125 -0.01083578 -0.011546663 -0.010945166 -0.011729222
-0.012843026 -0.013204585 -0.012914668 -0.012860556 -0.014143299 -0.0148611 -0.0147517035 -0.014901999
-0.016161967 -0.016150199 -0.01588056 -0.016738331 -0.018492484 -0.018466402 -0.017847816 -0.017740514
-0.02053316 -0.020365663 -0.019687712 -0.019761058 -0.022730788 -0.022177545 -0.021583252 -0.021600863
-0.024479331 -0.024036236 -0.024492977 -0.024614142 -0.025427958 -0.025843984 -0.026453229 -0.025643276
-0.027090464 -0.026350738 -0.02756416 -0.026392778 -0.02779635 -0.027417632 -0.027528798 -0.028016549
-0.028083062 -0.027878568 -0.02752196 -0.027938725 -0.02779039 -0.027850067 -0.027345346 -0.028337875
-0.026364375 -0.026945602 -0.026651911 -0.026616711 -0.023944743 -0.02434727 -0.0237016 -0.023507448
-0.020526731 -0.020945102 -0.020791328 -0.020475274 -0.0082787415 -0.017086374 -0.016802229 -0.017451609
-0.0023545062 -0.013581116 -0.013776499 0.20328912 0.10667068 -0.010011649 -0.010847053 0.8754252
0.28394777 0.012079855 0.049430534 0.8997322 0.29007614 0.17764777 0.41691688 0.920952
0.19595587 0.22276916 0.33511785 0.93740743 0.30875105 0.19540279 0.3474529 0.95886844
0.38357008 0.33783555 0.28545088 0.9781032 0.14110097 0.36537147 0.46761596 0.999667
0.0046731927 0.452178 0.1071043 0.22483568 -0.0047204522 0.05491641 -0.0012389419 0.012857066
-0.0038329186 -0.0013698738 -0.0038329186 -0.0022835874 -0.001 0.0 0.0 0.0
0.0 0.0 -0.001 -0.001 -0.000118900025 -0.001 -0.001099 -0.0019
0.02582 -0.00271 -0.0017459382 -0.0028981 0.3439 0.0034744698 0.007861009 0.011817003
0.16349936 0.12138562 0.17775261 0.2695316 0.014026453 0.5695328 0.027936367 0.054543108
-0.003985916 0.17363925 -0.0035363697 -1.9396195e-05 -0.007412477 0.026043488 -0.006873256 -0.0059723905
-0.008332362 -0.0043230993 -0.008111087 -0.007849296 -0.00948736 -0.009524547 -0.008985444 -0.009634138
-0.011816555 -0.010952286 -0.011008226 -0.0116845295 -0.012990253 -0.012788978 -0.012828122 -0.013563853
-0.014038412 -0.014318268 -0.014961762 -0.014765542 -0.016056951 -0.016103799 -0.01592148 -0.016547453
-0.018376257 -0.01770543 -0.017773705 -0.018559646 -0.020291282 -0.020403817 -0.019780118 -0.019892761
-0.022585385 -0.022000449 -0.021602688 -0.021546887 -0.024529405 -0.02384467 -0.024293806 -0.024739629
-0.025698833 -0.02558756 -0.026275449 -0.025831835 -0.02664333 -0.026917318 -0.02673296 -0.02779221
-0.028193543 -0.02811167 -0.028306399 -0.028571684 -0.028978275 -0.029013006 -0.028243963 -0.029187396
-0.029117528 -0.028728165 -0.028735936 -0.028596917 -0.027357193 -0.026983276 -0.027580151 -0.027260447
00000000: 0000 0000 0000 0000 0000 0000 6f12 83ba
00000010: 520c 90ba 6f12 83ba 6f12 83ba 0000 0000
00000020: 74ab d2ba 6f12 83ba 6f12 83ba 6594 faba
00000030: 59cf 213c 419a 31bb 59c0 34bb 1a76 3b3b
00000040: 76f1 a93d e1bf 5fbb bb69 4a3c c5ae c43d
00000050: 15db 943c bf85 793c e905 f63d f7e6 ef3e
00000060: 4eab 05bb eaa8 db3d 4dc2 823c 49c2 113e
00000070: c155 dbbb 678a b63c 1857 05bb 6788 883c
00000080: 0612 f3bb c21f 49bb b08c ddbb 2927 92bb
00000090: 2d19 11bc 2b16 03bc 19d1 11bc e966 0ebc
000000a0: db03 23bc 7e2c 24bc d816 20bc 2cf1 20bc
000000b0: 8e88 31bc 372e 3dbc 5b53 33bc ec2b 40bc
000000c0: 8e6b 52bc 0b58 58bc 0b98 53bc 15b5 52bc
000000d0: 4cb9 67bc f97b 73bc 21b1 71bc 8427 74bc
000000e0: 1a66 84bc 6c4d 84bc f317 82bc d31e 89bc
000000f0: 8d7d 97bc da46 97bc 9535 92bc 8e54 91bc
00000100: 2835 a8bc e4d5 a6bc 2048 a1bc f1e1 a1bc
00000110: eb35 babc afad b5bc 5ccf b0bc 4bf4 b0bc
00000120: e188 c8bc a4e7 c4bc 7fa5 c8bc 99a3 c9bc
00000130: 4b4e d0bc c3b6 d3bc 71b4 d8bc d911 d2bc
00000140: d2ec ddbc 81dd d7bc 3cce e1bc ab35 d8bc
00000150: 2cb5 e3bc f19a e0bc 1384 e1bc f682 e5bc
00000160: 730e e6bc 9861 e4bc bc75 e1bc c1df e4bc
00000170: aca8 e3bc d325 e4bc 5903 e0bc d524 e8bc
00000180: 1afa d7bc 06bd dcbc 1c55 dabc 4a0b dabc
00000190: c427 c4bc ed73 c7bc dc29 c2bc b192 c0bc
000001a0: ad27 a8bc 1095 abbc 9352 aabc c3bb a7bc
000001b0: 8fa3 07bc b9f8 8bbc d4a4 89bc adf6 8ebc
000001c0: 0f4e 1abb 5483 5ebc d3b6 61bc 062b 503e
000001d0: 2876 da3d e607 24bc d6b7 31bc de1b 603f
000001e0: 9a61 913e 96ea 453c ac77 4a3d d954 663f
000001f0: dc84 943e 4ce9 353e 2176 d53e 83c3 6b3f
00000200: a8a8 483e 991d 643e 9194 ab3e eff9 6f3f
00000210: 9e14 9e3e ab17 483e 59e5 b13e 6778 753f
00000220: 4c63 c43e c8f8 ac3e 9e26 923e f964 7a3f
00000230: c67c 103e f811 bb3e 5c6b ef3e 2dea 7f3f
00000240: 9521 993b e083 e73e 8059 db3d 533b 663e
00000250: 06ae 9abb 08f0 603d fe63 a2ba 71a6 523c
00000260: b431 7bbb 568d b3ba b431 7bbb 3da8 15bb
00000270: 6f12 83ba 0000 0000 0000 0000 0000 0000
00000280: 0000 0000 0000 0000 6f12 83ba 6f12 83ba
00000290: f759 f9b8 6f12 83ba 520c 90ba 6c09 f9ba
000002a0: 7784 d33c 419a 31bb f7d7 e4ba 0dee 3dbb
000002b0: a913 b03e eeb3 633b 76cb 003c 1a9c 413c
000002c0: 606c 273e 0699 f83d c804 363e 0c00 8a3e
000002d0: 35cf 653c e7cc 113f cfda e43c 9868 5f3d
000002e0: 499c 82bb 7dce 313e 70c2 67bb 03b5 a2b7
000002f0: 5de4 f2bb 2759 d53c 0d39 e1bb 0bb4 c3bb
00000300: 7684 08bc c9a8 8dbb 5de4 04bc 559a 00bc
00000310: df70 1bbc d80c 1cbc af37 13bc 81d8 1dbc
00000320: 399a 41bc 3871 33bc d95b 34bc 7870 3fbc
00000330: 12d5 54bc dd88 51bc 0b2d 52bc ec3a 5ebc
00000340: 5e01 66bc 2b97 6abc 2e22 75bc 2ceb 71bc
00000350: de89 83bc 1dec 83bc c36d 82bc 868e 87bc
00000360: ce89 96bc fa0a 91bc 299a 91bc 660a 98bc
00000370: e739 a6bc e825 a7bc ea09 a2bc 25f6 a2bc
00000380: fc04 b9bc 493a b4bc 1ff8 b0bc 1983 b0bc
00000390: e4f1 c8bc e655 c3bc ce03 c7bc c3aa cabc
000003a0: 5c86 d2bc 019d d1bc 9c3f d7bc 499d d3bc
000003b0: 1d43 dabc b581 dcbc 15ff dabc 7dac e3bc
000003c0: 25f6 e6bc 724a e6bc d2e2 e7bc 2a0f eabc
000003d0: d963 edbc afac edbc e25f e7bc 681a efbc
000003e0: e287 eebc 5457 ebbc a067 ebbc 1544 eabc
000003f0: 311c e0bc 080c ddbc c5ef e1bc 4d51 dfbc
