learning_process/task_10/models/model-17-2.npy (npy, 24464 bytes, 1 tensors)

array f4 [1521, 4]
0.06863965 0.03222307 0.03132721 0.017139653 0.1 0.032021496 0.06863965 0.0558145
0.0 0.0 0.0 0.0 0.031022698 0.1 0.06841088 0.06265857
0.0025134543 0.06841088 0.028028127 0.014287869 -0.0093390895 0.029915461 0.0029219994 -0.0069451076
-0.013646328 0.002158236 -0.009518915 -0.012908639 -0.014391648 -0.009165496 -0.01303017 -0.013755631
-0.014370691 -0.012301112 -0.013649695 -0.013967863 -0.013161768 -0.013141555 -0.012922288 -0.01298926
-0.011298847 -0.012036475 -0.011933354 -0.011156107 -0.010860614 -0.011427776 -0.010915576 -0.010537732
-0.008952662 -0.0111992005 -0.010466099 -0.007785982 -0.009447889 -0.009891285 -0.008454469 -0.0007926637
-0.009705984 -0.008410343 -0.008840315 -0.007569973 -0.009673106 -0.009631143 -0.009763972 -0.008840573
-0.008645969 -0.009994202 -0.008964085 -0.009307735 -0.008550933 -0.008951804 -0.007972057 -0.008181232
-0.0077375476 -0.008396786 -0.007972057 -0.007983858 -0.0068900455 -0.0071178707 -0.0069790357 -0.0076689245
-0.00695739 -0.0071064453 -0.00688696 -0.0067409426 -0.006850884 -0.006982829 -0.0059850207 -0.006725185
-0.0067901188 -0.006939348 -0.0069790357 -0.00698959 -0.00597576 -0.006843423 -0.0059850207 -0.0059681903
-0.005112765 -0.0059800805 -0.0049900105 -0.0050443094 -0.0055083293 -0.0050043 -0.0059850207 -0.0058928463
-0.004739026 -0.0059129214 -0.0049900105 -0.0042369533 -0.003726001 -0.0042361757 -0.0039940043 -0.0040820525
-0.003895202 -0.003095803 -0.003895202 -0.003895202 -0.0029970012 -0.003095803 -0.0028981 -0.003077191
-0.0036271 -0.001999 -0.0029970012 -0.0020881 -0.0034389999 -0.002008801 -0.0019 -0.001
0.0 -0.001 0.0 -0.001 -0.001 -0.001 0.0 0.0
-0.001 -0.001 -0.001 -0.001 -0.001 -0.001 0.0 -0.001
0.0 -0.001 0.0 0.0 -0.001 0.0 0.0 -0.001
0.0 -0.001 -0.001 -0.001 0.06339304 0.015261117 0.036563676 -0.005530525
0.15539221 0.012010832 0.06589444 0.0141551625 0.06745627 0.057172038 0.3439 0.054965258
0.014265221 0.16909158 0.068205 0.018778976 -0.00695934 0.06540292 0.028735247 -0.005740704
-0.012946485 0.013773666 0.002109953 -0.012894985 -0.01438889 -0.0065770964 -0.009667884 -0.013642597
-0.014241722 -0.012453991 -0.013675648 -0.01404411 -0.014187804 -0.013902927 -0.013859702 -0.0140811205
-0.013008618 -0.013491599 -0.012877858 -0.012855538 -0.011097778 -0.012127033 -0.011597822 -0.011438084
-0.008867948 -0.011257791 -0.011010175 -0.007061095 -0.0012979433 -0.010491636 -0.009806926 0.0015604377
-0.0077576037 -0.0076212715 -0.0086913435 0.02521357 -0.009653553 -0.0012353236 -0.0088754725 -0.00096042006
-0.008578349 -0.0077351755 -0.008944642 -0.00746159 -0.008594674 -0.007929568 -0.0089752115 -0.009645847
-0.007983625 -0.0079086665 -0.008651321 -0.008321027 -0.0076716198 -0.0081869215 -0.007937898 -0.008067862
-0.007074915 -0.0070630377 -0.0068895533 -0.007945787 -0.007032544 -0.0063519864 -0.006991222 -0.0076779653
-0.006905894 -0.006006902 -0.00691709 -0.006665351 -0.0068715694 -0.0060927016 -0.0068562385 -0.0071662436
-0.0059576686 -0.0060549425 -0.0057983687 -0.0058996486 -0.0066238185 -0.0049811983 -0.0049083196 -0.0049962895
00000000: f292 8c3d 56fc 033d f650 003d 7568 8c3c
00000010: cdcc cc3d f928 033d f292 8c3d bf9d 643d
00000020: 0000 0000 0000 0000 0000 0000 0000 0000
00000030: 5023 fe3c cdcc cc3d 011b 8c3d 2353 803d
00000040: c4b8 243b 011b 8c3d 3e9b e53c ab17 6a3c
00000050: fb02 19bc 4511 f53c 047f 3f3b c993 e3bb
00000060: d994 5fbc 3171 0d3b 39f5 1bbc c27e 53bc
00000070: f2ca 6bbc e02a 16bc 7f7c 55bc 4c5f 61bc
00000080: 0c73 6bbc 9a8a 49bc f8a2 5fbc 77d9 64bc
00000090: 75a4 57bc ad4f 57bc 01b8 53bc e8d0 54bc
000000a0: cd1e 39bc a334 45bc 1d84 43bc 1bc8 36bc
000000b0: b7f0 31bc 913b 3bbc 3ed7 32bc 74a6 2cbc
000000c0: 30ae 12bc da7c 37bc 007a 2bbc 8d21 ffbb
000000d0: 52cb 1abc 0e0f 22bc 9d84 0abc c3ca 4fba
000000e0: d905 1fbc 89cb 09bc f8d6 10bc 890d f8bb
000000f0: f27b 1ebc f1cb 1dbc 11f9 1fbc 0dd8 10bc
00000100: d3a7 0dbc b9be 23bc 19de 12bc 787f 18bc
00000110: 3619 0cbc 96aa 12bc 3b9d 02bc 930a 06bc
00000120: 418b fdbb ac92 09bc 3b9d 02bc bace 02bc
00000130: e4c5 e1bb 073d e9bb 65b0 e4bb 9a4b fbbb
00000140: d1fa e3bb 2fdd e8bb 02ac e1bb 20e3 dcbb
00000150: 617d e0bb 37d0 e4bb fe1d c4bb f15e dcbb
00000160: a57f debb 7863 e3bb 65b0 e4bb ee08 e5bb
00000170: 4fd0 c3bb cb3e e0bb fe1d c4bb cf90 c3bb
00000180: fb88 a7bb 8df4 c3bb 3e83 a3bb bc4a a5bb
00000190: 377f b4bb 1cfb a3bb fe1d c4bb c718 c1bb
000001a0: d549 9bbb 2ec1 c1bb 3e83 a3bb 24d6 8abb
000001b0: ec2f 74bb 9ecf 8abb 23e0 82bb bdc2 85bb
000001c0: a546 7fbb f5e2 4abb a546 7fbb a546 7fbb
000001d0: 5669 44bb f5e2 4abb 0dee 3dbb b3aa 49bb
000001e0: a4b4 6dbb a801 03bb 5669 44bb 81d8 08bb
000001f0: d860 61bb 17a6 03bb 6c09 f9ba 6f12 83ba
00000200: 0000 0000 6f12 83ba 0000 0000 6f12 83ba
00000210: 6f12 83ba 6f12 83ba 0000 0000 0000 0000
00000220: 6f12 83ba 6f12 83ba 6f12 83ba 6f12 83ba
00000230: 6f12 83ba 6f12 83ba 0000 0000 6f12 83ba
00000240: 0000 0000 6f12 83ba 0000 0000 0000 0000
00000250: 6f12 83ba 0000 0000 0000 0000 6f12 83ba
00000260: 0000 0000 6f12 83ba 6f12 83ba 6f12 83ba
00000270: 36d4 813d c409 7a3c cbc3 153d 6839 b5bb
00000280: 231f 1f3e 15c9 443c aaf3 863d 0eeb 673c
00000290: 8326 8a3d 3a2d 6a3d a913 b03e 4023 613d
000002a0: acb8 693c 5826 2d3e 10af 8b3d 5ed6 993c
000002b0: 2d0b e4bb f7f1 853d 2e66 eb3c 841c bcbb
000002c0: 7e1d 54bc f1aa 613c 2347 0a3b 7d45 53bc
000002d0: 61bf 6bbc af84 d7bb 0b66 1ebc 3385 5fbc
000002e0: 1d56 69bc d30b 4cbc d30f 60bc 4419 66bc
000002f0: f773 68bc 1ac9 63bc ce13 63bc 80b4 66bc
00000300: 1922 55bc de0b 5dbc a7fd 52bc 09a0 52bc
00000310: 74d3 35bc 77b0 46bc cb04 3ebc cd66 3bbc
00000320: df4a 11bc 9972 38bc 0564 34bc c260 e7bb
00000330: c01f aaba 1ce5 2bbc 3bad 20bc 9a87 cc3a
00000340: 7f33 febb dcbb f9bb 2366 0ebc b08c ce3c
00000350: f029 1ebc 95ea a1ba 6e6a 11bc b3c4 7bba
00000360: 348c 0cbc 5b77 fdbb 8c8c 12bc 5b80 f4bb
00000370: add0 0cbc 05eb 01bc c40c 13bc 9d09 1ebc
00000380: c0cd 02bc 5a93 01bc 45be 0dbc eb54 08bc
00000390: 3662 fbbb 7022 06bc f50d 02bc 112f 04bc
000003a0: b0d4 e7bb 0e71 e7bb c3c1 e1bb 0c2f 02bc
000003b0: 4171 e6bb 5324 d0bb 9f16 e5bb 7197 fbbb
000003c0: d64a e2bb 8cd5 c4bb c2a8 e2bb 0469 dabb
000003d0: e72a e1bb 49a5 c7bb 4caa e0bb cfd2 eabb
000003e0: 8c38 c3bb 8a68 c6bb 3e00 bebb d751 c1bb
000003f0: 9e0c d9bb 5239 a3bb f8d5 a0bb eab7 a3bb
