learning_process/task_11/models/model-9-1.npy (npy, 24464 bytes, 1 tensors)

array f4 [1521, 4]
0	0xbcb0aaa4	-0.021565743
1	0xbcaa5293	-0.020791328
2	0xbcb1b698	-0.021693513
3	0xbcac5dd0	-0.021040827
4	0xbcac1c0d	-0.02100947
5	0xbcab45fd	-0.020907396
6	0xbcb191dc	-0.021675996
7	0xbcb1d6e4	-0.021708913
8	0xbcafb5c9	-0.021448987
9	0xbcac868a	-0.021060247
10	0xbcaffc69	-0.021482663
11	0xbcb22ddb	-0.021750381
12	0xbcae2eb8	-0.021262512
13	0xbcb0f700	-0.021602154
14	0xbcb0c1cb	-0.021576783
15	0xbcac5de0	-0.021040857
16	0xbc9bbb66	-0.019010257
17	0xbcb16367	-0.021653844
18	0xbcae4e98	-0.02127771
19	0xbc9e367e	-0.019313093
20	0xbc2390ce	-0.009983255
21	0xbcb8334c	-0.022485398
22	0xbc9d56e7	-0.019206477
23	0xbc17e42e	-0.009270711
24	0x3ca258bd	0.019817704
25	0xbca1c930	-0.019749254
26	0xbc16216b	-0.009163241
27	0x3c834d03	0.016027933
28	0x3dad95e4	0.08475855
29	0xbc1fbda7	-0.0097498065
30	0x3cbdd2fe	0.023171898
31	0x3dd1470a	0.10218628
32	0x3cf47859	0.029842542
33	0x3cd026d1	0.025409134
34	0x3dcb5cf6	0.0992984
35	0x3e827670	0.25480986
36	0xbb877bf2	-0.0041346485
37	0x3de82ea4	0.11337021
38	0x3d0cea0a	0.034402885
39	0x3df66ea9	0.120328255
40	0xbc9d2f1f	-0.019187508
41	0x3d191683	0.037374984
42	0xbb7c1fe9	-0.0038471168
43	0x3d2a1ff0	0.041534364
44	0xbccec096	-0.025238317
45	0xbacfa858	-0.0015843017
46	0xbca3ec36	-0.020010095
47	0xbb44ea17	-0.0030046755
48	0xbcdac11a	-0.026703406
49	0xbca6bbb2	-0.020353172
50	0xbcd00b42	-0.025395993
51	0xbca61c60	-0.020277202
52	0xbce68d89	-0.028143661
53	0xbcd56c40	-0.026052594
54	0xbce0224f	-0.02736011
55	0xbcd4a1a6	-0.025955986
56	0xbcedec76	-0.029043417
57	0xbce60cf0	-0.028082341
58	0xbce97655	-0.028498808
59	0xbce6dcfc	-0.028181545
60	0xbcf54e54	-0.029944576
61	0xbceff2a9	-0.029290514
62	0xbcef5ce0	-0.029219091
63	0xbcef1687	-0.029185547
64	0xbcf7efb6	-0.03026567
65	0xbcf5d98b	-0.03001096
66	0xbcfa0bf1	-0.030523272
67	0xbcf8b570	-0.030359954
68	0xbcf1fbea	-0.029539067
69	0xbcf9859f	-0.030459223
70	0xbcfa51e0	-0.03055662
71	0xbcf37838	-0.02972041
72	0xbcf4ebf0	-0.02989766
73	0xbcf5eb56	-0.030019443
74	0xbcf86aed	-0.030324424
75	0xbcfaabc8	-0.03059949
76	0xbcf8386f	-0.030300347
77	0xbcfda30a	-0.030961532
78	0xbcf672f7	-0.030084116
79	0xbcf9601b	-0.030441334
80	0xbcf8e138	-0.03038083
81	0xbcfa1eb3	-0.030532217
82	0xbcf985ea	-0.030459363
83	0xbcfb4200	-0.03067112
84	0xbcf0e676	-0.029406767
85	0xbcf8b48e	-0.030359533
86	0xbcf0f7f1	-0.029415103
87	0xbcf0bcbe	-0.029386874
88	0xbcdc7e4f	-0.026915697
89	0xbcf252c7	-0.029580487
90	0xbcedc4bd	-0.029024476
91	0xbcd849a9	-0.026402311
92	0xbcac044a	-0.020998139
93	0xbce8dcaa	-0.028425533
94	0xbcd04dfc	-0.02542781
95	0xbca13a5e	-0.019681152
96	0xbc0c097e	-0.008547185
97	0xbcce9c9e	-0.025221165
98	0xbca90ca0	-0.020635903
99	0xbb528966	-0.0032125353
100	0x3ca6af51	0.02034727
101	0xbca5dba9	-0.020246344
102	0xbc2ac47c	-0.010422822
103	0x3cd12ae1	0.025533142
104	0x3d8be67b	0.0683107
105	0xbc0f23c4	-0.0087365545
106	0x3cc9c446	0.024629723
107	0x3db0034d	0.085943796
108	0x3be40afe	0.006959318
109	0x3c7ee024	0.015556369
110	0x3d6eb5bf	0.058278795
111	0x3e3b27d1	0.18276908
112	0xbc5cab05	-0.013468509
113	0x3d4b931e	0.04970085
114	0x3bbe6449	0.0058102948
115	0x3d78b892	0.060722895
116	0xbc8eed6a	-0.017447192
117	0x3b985204	0.004648449
118	0xbc51e770	-0.012811527
119	0x39640950	0.00021747244
120	0xbc7b0935	-0.015322019
121	0xbc452605	-0.01203299
122	0xbc815dd0	-0.015791804
123	0xbc5959c8	-0.013266034
124	0xbc60cd6b	-0.01372085
125	0xbc6cbffe	-0.014450071
126	0xbc53b801	-0.012922288
127	0xbc68aef5	-0.014201869
128	0xbc3cf0fc	-0.0115320645
129	0xbc3a2273	-0.011360752
130	0xbc3f2948	-0.011667557
131	0xbc422c0c	-0.011851322
132	0xbc12e8ac	-0.008966606
133	0xbc122d35	-0.008921911
134	0xbc10e6d6	-0.008844098
135	0xbc311713	-0.010808724
136	0xbc08ef00	-0.008357763
137	0xbbdef8a0	-0.0068045408
138	0xbbe4b065	-0.0069790357
139	0xbbec8360	-0.0072178096
140	0xc36a478e	-234.27951
141	0xbbb8b575	-0.0056368657
142	0xbbd8b534	-0.006613398
143	0xbbc5cfa0	-0.0060367137
144	0x00000000	0.0
145	0x00000000	0.0
146	0x00000000	0.0
147	0x00000000	0.0
148	0xbb5388ff	-0.00322777
149	0x00000000	0.0
150	0xbaf9096c	-0.0019
151	0xbb43c4e7	-0.0029872002
152	0xbb43c4e7	-0.0029872002
153	0xbb6160d8	-0.0034389999
154	0xbb7e0e39	-0.0038765802
155	0xbb4eec10	-0.003157381
156	0xbcb15a39	-0.021649467
157	0xbcb0ef05	-0.021598348
158	0xbcaff89f	-0.021480856
159	0xbcb2762e	-0.021784868
160	0xbcae9aae	-0.021313991
161	0xbcb47b8b	-0.022031566
162	0xbcae4ff4	-0.021278359
163	0xbcb2779f	-0.021785555
164	0xbcb06357	-0.021531744
165	0xbcaff96b	-0.021481236
166	0xbcb1edca	-0.021719832
167	0xbcacb5b1	-0.021082731
168	0xbc99f3b4	-0.018792965
169	0xbcb3a4fb	-0.021929255
170	0xbcb25686	-0.021769773
171	0xbc9d9b30	-0.019239038
172	0xbc0f7a1e	-0.008757142
173	0xbcb40c6e	-0.021978583
174	0xbcb4781c	-0.022029929
175	0xbc1453b7	-0.009053162
176	0x3c959d80	0.018263578
177	0xbc9dd649	-0.019267218
178	0xbc9c108c	-0.019050859
179	0x3cafe972	0.02147362
180	0x3dbe8308	0.09302336
181	0xbc1d8569	-0.009614327
182	0xbc285e21	-0.010276348
183	0x3daea111	0.08526815
184	0x3e76f795	0.24117883
185	0x3ccc1537	0.02491246
186	0x3ca66330	0.020310968
187	0x3e6ee4c9	0.23329462
188	0x3df2785c	0.11839363
189	0x3dcb2389	0.09918887
190	0x3dd92b18	0.106039226
191	0x3eef800e	0.46777385
192	0x3d077d41	0.033078436
193	0x3e84cb21	0.25936225
194	0x3d069885	0.032860298
195	0x3e91d440	0.28482246
196	0xbb84a8a0	-0.004048422
197	0x3e01e88c	0.12686366
198	0xbb4101e6	-0.0029450594
199	0x3e023f64	0.12719494
200	0xbca12ec5	-0.019675622
201	0x3d181a28	0.03713432
202	0xbc9bd143	-0.019020682
203	0x3d2b7320	0.04185784
204	0xbcce8a26	-0.025212359
205	0xbb3a73b3	-0.002845031
206	0xbcd2eff3	-0.025749182
207	0xbba7fbf6	-0.0051264716
208	0xbce0f7c7	-0.0274619
209	0xbcac1ecb	-0.021010777
210	0xbce1eae3	-0.027577823
211	0xbcac1f51	-0.021011027
212	0xbce90e8e	-0.028449323
213	0xbcdbef04	-0.02684737
214	0xbce5cef4	-0.028052785
215	0xbcdd1c43	-0.026991015
216	0xbcef87e1	-0.029239597
217	0xbced4ea2	-0.02896816
218	0xbcf1f942	-0.0295378
219	0xbcee87de	-0.02911752
220	0xbcf19398	-0.029489323
221	0xbcf941c9	-0.030426877
222	0xbcf8f34b	-0.030389449
223	0xbcf396bc	-0.029734962
224	0xbcf2568f	-0.02958229
225	0xbcf8e86e	-0.030384269
226	0xbcf58d7a	-0.029974688
227	0xbcf4e79f	-0.029895602
228	0xbcfeb25d	-0.03109091
229	0xbcf89a06	-0.030346882
230	0xbcf5c536	-0.030001264
231	0xbcf49872	-0.029857848
232	0xbcfa59f3	-0.03056047
233	0xbcfc00a2	-0.03076202
234	0xbcff4e35	-0.031165222
235	0xbcfab417	-0.030603452
236	0xbcf50a9e	-0.02991229
237	0xbcfda08a	-0.03096034
238	0xbcfaae29	-0.030600624
239	0xbcf8105c	-0.030281238
240	0xbcda7890	-0.026668817
241	0xbcf97e87	-0.03045584
242	0xbcf4a351	-0.029863032
243	0xbcdab296	-0.026696485
244	0xbc9e2712	-0.01930574
245	0xbcec5f31	-0.028853985
246	0xbcecee34	-0.028922178
247	0xbc8e7582	-0.017390016
248	0xbb196d73	-0.0023411184
249	0xbcd630e6	-0.026146363
250	0xbcd4f348	-0.025994912
251	0xbb36a652	-0.002787013
252	0x3d12eb0b	0.035868686
253	0xbc9ef9fb	-0.01940631
254	0xbca36efb	-0.01995038
255	0x3d1b4da5	0.037915844
