learning_process/task_11/models/model-12-1.npy (npy, 24464 bytes, 1 tensors)

array f4 [1521, 4]
-0.019762965 -0.021408534 -0.020458486 -0.019736787 -0.02112652 -0.02065428 -0.019723998 -0.015249316
-135.5 -0.019876977 -0.020590233 -0.020005595 0.0 0.0 0.0 0.0
-0.021795422 -95.0 -0.021712333 -0.022060059 -0.022765236 -0.022319656 -0.022510627 -0.023208505
-0.023787756 -0.023926338 -0.024621412 -0.023328625 -0.024195608 -0.024644619 -0.024672376 -0.025106994
-0.02531862 -0.025177864 -0.024702292 -0.025346538 -0.026355656 -0.025963113 -0.025614819 -0.026397131
-0.027656859 -0.026679829 -0.027107308 -0.028372725 -0.028919803 -0.028370673 -0.028448086 -0.029229468
-0.02995796 -0.03009672 -0.029569037 -0.029752323 -0.031358905 -0.031319596 -0.030539468 -0.031046588
-0.032844376 -0.032800276 -0.032429073 -0.032833908 -0.0336608 -0.034371268 -0.034411497 -0.034847107
-0.035501543 -0.036236398 -0.036216117 -0.035558335 -0.037670653 -0.037836112 -0.037163544 -0.037537403
-0.038190868 -0.03962983 -0.040057324 -0.039791368 -0.037617832 -0.041356623 -0.04000822 -0.040390026
-0.031135326 -0.043132365 -0.039392527 -0.038241968 -0.011559825 -0.040818438 -0.030853802 -0.026209991
0.0341333 -0.029609159 -0.005338221 0.004231062 0.13464966 0.0018006366 0.04714785 0.081107646
0.29259944 0.08085008 0.1679516 0.24053639 0.5351895 0.23272972 0.36693165 0.48693097
0.8982809 0.46859378 0.67389214 0.7801906 0.92119074 0.8665195 0.8998532 -499.9995
0.940597 0.8971484 0.92022616 -473.8326 0.95875555 0.91484535 0.93292534 0.96019924
0.8777776 0.83850604 0.9226707 0.97965264 0.6015511 0.85915047 0.7851843 0.9249707
0.30332267 0.6944169 0.5073289 0.703104 0.118559934 0.42878547 0.2534686 0.4289658
0.021479474 0.22814415 0.09438709 0.19613935 -0.016891232 0.0828929 0.017933859 0.060946457
-0.029903933 0.010237732 -0.017592091 0.009145675 -0.033242468 -0.01855783 -0.02980886 -0.021851987
-0.033197995 -0.029524025 -0.033116005 -0.030284945 -0.015439481 -0.020260423 -0.020645259 -0.015123485
-0.019637873 -0.019955883 -0.020051653 -0.0017757579 -0.02141683 -0.015768388 -0.021262247 -0.01509564
-0.021078968 -0.020400237 -95.0 -0.02041848 -0.02177207 -0.02157311 -0.021916792 -0.022186613
-0.023001738 -0.022272939 -0.02257163 -0.022680331 -0.024312615 -0.023397308 -0.02362685 -0.02410492
-0.025181713 -0.024941716 -0.024968598 -0.024236023 -0.026168289 -0.025692564 -0.025592549 -0.026071621
-0.027320525 -0.027106794 -0.02664232 -0.027075035 -0.027513135 -0.028684398 -0.027883416 -0.027132744
-0.028142715 -0.028754111 -0.028777413 -0.028736474 -0.029170616 -0.02961941 -0.029602567 -0.029581884
-0.030517021 -0.030908756 -0.030820234 -0.030688193 -0.031827778 -0.032218073 -0.03258968 -0.0325489
-0.0340511 -0.03367311 -0.03383554 -0.033611692 -0.035991322 -0.03523215 -0.035797656 -0.035240047
-0.037638713 -0.037451345 -0.037690885 -0.036844734 -0.038216773 -0.039466213 -0.03952661 -0.038950566
-0.0365161 -0.041463368 -0.039861348 -0.038636785 -0.027782412 -0.042386338 -0.03908689 -0.03261567
-0.0051568965 -0.03914491 -0.03102895 -0.011629266 0.051410094 -0.026150728 -0.008981489 0.040204596
0.1700299 0.009426326 0.037237972 0.14316179 0.35919514 0.09342733 0.13610509 0.3304813
00000000: f1e5 a1bc f360 afbc 8e98 a7bc 0baf a1bc
00000010: 8611 adbc 2a33 a9bc 3994 a1bc 44d8 79bc
00000020: 0080 07c3 0bd5 a2bc d9ac a8bc c6e2 a3bc
00000030: 0000 0000 0000 0000 0000 0000 0000 0000
00000040: 508c b2bc 0000 bec2 10de b1bc 4cb7 b4bc
00000050: 297e babc b6d7 b6bc 3568 b8bc c31f bebc
00000060: 8ade c2bc 2b01 c4bc d8b2 c9bc ac1b bfbc
00000070: de35 c6bc 83e3 c9bc b91d cabc 2fad cdbc
00000080: ff68 cfbc cf41 cebc 765c cabc 8ba3 cfbc
00000090: d1e7 d7bc 98b0 d4bc 2bd6 d1bc cc3e d8bc
000000a0: a390 e2bc a88f dabc 2510 debc eb6d e8bc
000000b0: 39e9 ecbc 9d69 e8bc f60b e9bc a372 efbc
000000c0: 656a f5bc 668d f6bc c43a f2bc 25bb f3bc
000000d0: 3272 00bd fa48 00bd e82d fabc 6a55 febc
000000e0: d387 06bd 9559 06bd 59d4 04bd d97c 06bd
000000f0: e8df 09bd e3c8 0cbd 12f3 0cbd d7bb 0ebd
00000100: 116a 11bd 9e6c 14bd 5a57 14bd 9ea5 11bd
00000110: 8b4c 1abd 0afa 1abd cd38 18bd d2c0 19bd
00000120: 076e 1cbd e352 22bd 2613 24bd 46fc 22bd
00000130: 2815 1abd 9065 29bd a9df 23bd 0370 25bd
00000140: 830f ffbc 90ab 30bd 0f5a 21bd 9ca3 1cbd
00000150: 6c65 3dbc 3c31 27bd 1dc1 fcbc 56b6 d6bc
00000160: 5ccf 0b3d e88e f2bc 3eec aebb b8a4 8a3b
00000170: 9ae1 093e 5703 ec3a 1b1e 413d c41b a63d
00000180: 98cf 953e ba94 a53d 81fb 2b3e 2c4f 763e
00000190: 2e02 093f b350 6e3e 77de bb3e 044f f93e
000001a0: bdf5 653f 86eb ef3e 3284 2c3f 92ba 473f
000001b0: 28d3 6b3f 39d4 5d3f c85c 663f f0ff f9c3
000001c0: f7ca 703f 84ab 653f f193 6b3f 93ea ecc3
000001d0: 0171 753f 4e33 6a3f 32d4 6e3f 9ecf 753f
000001e0: 08b6 603f 55a8 563f 2634 6c3f 84ca 7a3f
000001f0: 41ff 193f 49f1 5b3f d701 493f e1ca 6c3f
00000200: 1c4d 9b3e 4ec5 313f 4fe0 013f a0fe 333f
00000210: 8dcf f23d c589 db3e a3c6 813e 68a1 db3e
00000220: b9f5 af3c 9f9e 693e 054e c13d c1d8 483e
00000230: 7b5f 8abc c1c3 a93d 07ea 923c fea2 793d
00000240: 18f9 f4bc 29bc 273c 4a1d 90bc bed7 153c
00000250: 4129 08bd 9706 98bc b631 f4bc f002 b3bc
00000260: 9ffa 07bd 5edc f1bc a6a4 07bd 2218 f8bc
00000270: e0f5 7cbc 30f9 a5bc 3f20 a9bc 7ec8 77bc
00000280: 9bdf a0bc 857a a3bc 5d43 a4bc 8cc0 e8ba
00000290: 5972 afbc b52c 81bc 2a2e aebc b453 77bc
000002a0: cdad acbc 661e a7bc 0000 bec2 a844 a7bc
000002b0: 575b b2bc 17ba b0bc d88a b3bc b3c0 b5bc
000002c0: 246e bcbc bd75 b6bc 24e8 b8bc 1acc b9bc
000002d0: 402b c7bc b6ab bfbc 198d c1bc ae77 c5bc
000002e0: e149 cebc 9252 ccbc f28a ccbc a08a c6bc
000002f0: e15e d6bc 3679 d2bc 77a7 d1bc 2794 d5bc
00000300: 4bcf dfbc 110f debc ff40 dabc 77cc ddbc
00000310: 3a63 e1bc 8bfb eabc c36b e4bc 7d45 debc
00000320: 8d8b e6bc be8d ebbc 9cbe ebbc c168 ebbc
00000330: 37f7 eebc 68a4 f2bc 1581 f2bc b555 f2bc
00000340: d5fe f9bc 5c34 fdbc b77a fcbc ce65 fbbc
00000350: d85d 02bd 19f7 03bd c27c 05bd ff51 05bd
00000360: 2b79 0bbd d1ec 09bd 2397 0abd 6aac 09bd
00000370: a36b 13bd 964f 10bd 90a0 12bd de57 10bd
00000380: 0d2b 1abd 9566 19bd c261 1abd 81ea 16bd
00000390: 3189 1cbd 53a7 21bd a8e6 21bd a18a 1fbd
000003a0: e891 15bd 7ed5 29bd a745 23bd 9b41 1ebd
000003b0: f197 e3bc 4c9d 2dbd 9319 20bd 0298 05bd
000003c0: 2ffb a8bb 6a56 20bd 6d30 febc ad88 3ebc
000003d0: 6493 523d 0d3a d6bc 1827 13bc 93ad 243d
000003e0: 511c 2e3e e070 1a3c d886 183d 0199 123e
000003f0: 6de8 b73e d456 bf3d 225f 0b3e d834 a93e
