learning_process/task_12/models/model-8-3.npy (npy, 24464 bytes, 1 tensors)

array f4 [1521, 4]
000000 6f 12 83 ba 00 00 00 00 00 00 00 00 00 00 00 00
       -0.001 0.0 0.0 0.0
000010 00 00 00 00 6f 12 83 ba 00 00 00 00 6f 12 83 ba
       0.0 -0.001 0.0 -0.001
000020 6f 12 83 ba 00 00 00 00 00 00 00 00 00 00 00 00
       -0.001 0.0 0.0 0.0
000030 00 00 00 00 00 00 00 00 00 00 00 00 6f 12 83 ba
       0.0 0.0 0.0 -0.001
000040 6f 12 83 ba 00 00 00 00 00 00 00 00 6f 12 83 ba
       -0.001 0.0 0.0 -0.001
000050 6f 12 83 ba 6f 12 83 ba 6f 12 83 ba 00 00 00 00
       -0.001 -0.001 -0.001 0.0
000060 00 00 00 00 6f 12 83 ba 00 00 00 00 6f 12 83 ba
       0.0 -0.001 0.0 -0.001
000070 6f 12 83 ba 6f 12 83 ba 6f 12 83 ba 6f 12 83 ba
       -0.001 -0.001 -0.001 -0.001
000080 52 0c 90 ba 6c 09 f9 ba 6f 12 83 ba 6f 12 83 ba
       -0.001099 -0.0019 -0.001 -0.001
000090 81 d8 08 bb 6c 09 f9 ba a8 01 03 bb a8 01 03 bb
       -0.0020881 -0.0019 -0.001999 -0.001999
0000a0 a8 01 03 bb 33 17 38 bb a8 01 03 bb a8 01 03 bb
       -0.001999 -0.002809 -0.001999 -0.001999
0000b0 81 d8 08 bb 0d ee 3d bb 56 69 44 bb 0d ee 3d bb
       -0.0020881 -0.0028981 -0.0029970012 -0.0028981
0000c0 a8 01 03 bb 33 17 38 bb a8 01 03 bb a8 b2 7e bb
       -0.001999 -0.002809 -0.001999 -0.0038863812
0000d0 ae f9 55 bb 4a 71 79 bb 00 8e 82 bb 00 8e 82 bb
       -0.0032650041 -0.003806191 -0.003984213 -0.003984213
0000e0 58 23 af bb a8 92 b3 bb 3e 83 a3 bb 56 fd 9f bb
       -0.0053447895 -0.0054801293 -0.0049900105 -0.004882495
0000f0 f1 45 f0 bb 29 bd ed bb 65 b0 e4 bb 5f ac df bb
       -0.0073325564 -0.0072552157 -0.0069790357 -0.006825968
000100 b3 a1 0c bc eb 44 14 bc 9e 6a 11 bc e9 29 0e bc
       -0.008583474 -0.009049634 -0.008875517 -0.008676984
000110 b1 a9 0d bc 52 1b 2e bc 54 48 11 bc 75 87 12 bc
       -0.008646415 -0.010626631 -0.008867342 -0.008943428
000120 90 bc 2b bc 63 97 31 bc 5b 53 33 bc 3f 15 32 bc
       -0.0104819685 -0.010839316 -0.010945166 -0.010869323
000130 aa 27 55 bc f8 1d 44 bc 16 89 42 bc 5a 6b 4e bc
       -0.013009945 -0.011970036 -0.011873504 -0.012598837
000140 91 33 63 bc 30 91 6b bc 1c e4 63 bc 18 57 70 bc
       -0.013867275 -0.014377877 -0.013909366 -0.014669202
000150 6b 79 81 bc a9 4c 7a bc f5 73 72 bc af 54 72 bc
       -0.015804967 -0.015277066 -0.014798154 -0.014790698
000160 9c 0c 8a bc a9 7f 85 bc f3 17 82 bc f3 2e 8a bc
       -0.016851716 -0.016296225 -0.01588056 -0.01686809
000170 32 6e 92 bc 9b 99 8f bc 5f 9e 90 bc 10 b9 91 bc
       -0.01787481 -0.0175293 -0.017653642 -0.01778844
000180 f6 82 98 bc 49 f4 97 bc 5b 6d 99 bc a9 bc 9a bc
       -0.018617135 -0.018549101 -0.018728903 -0.018888788
000190 d1 49 a0 bc 99 6b 9d bc f8 4a a2 bc cd a0 a3 bc
       -0.019566448 -0.019216346 -0.019811139 -0.019974137
0001a0 77 e8 aa bc 2a 43 a7 bc 2f f0 a8 bc fe d6 ab bc
       -0.020862801 -0.020417769 -0.020622341 -0.02097654
0001b0 bf c1 b9 bc 72 f4 b0 bc 20 58 b2 bc 60 5d b3 bc
       -0.022675393 -0.021600936 -0.021770537 -0.02189511
0001c0 bc 67 b5 bc 1b fb bb bc ca d6 b8 bc 5e 33 c1 bc
       -0.022144191 -0.022946885 -0.022563357 -0.023584064
0001d0 42 6c b5 bc 04 51 be bc c1 0c bf bc 1a 82 b5 bc
       -0.022146348 -0.02323199 -0.023321511 -0.022156764
0001e0 88 27 95 bc 31 8d c6 bc 0c 1a bb bc d1 48 94 bc
       -0.018207327 -0.024237247 -0.022839569 -0.018101128
0001f0 f6 ba ad bb 57 b0 bc bc 91 f1 94 bc 7b 38 f0 bb
       -0.0053018285 -0.023033304 -0.018181594 -0.0073309517
000200 0b ac eb 3c e1 38 94 bc 64 0f 91 bb 02 f4 e2 3c
       0.02876856 -0.018093528 -0.0044268835 0.027704243
000210 d6 81 c5 3d b9 77 0b bb e5 c4 f7 3c d7 33 c4 3d
       0.09643905 -0.0021281077 0.030245254 0.095802
000220 a8 1a b9 3d 3b 30 11 3d 13 c4 c8 3d 91 91 52 3e
       0.090382874 0.035446387 0.09803023 0.20563342
000230 43 a6 36 3e c0 c2 c6 3d b9 e8 c4 3d ea 6b 34 3e
       0.17836861 0.09705114 0.09614701 0.17619291
000240 70 f3 9c 3d ca a0 bc 3d 36 e5 2c 3e 9f ec a0 3e
       0.076636195 0.092103556 0.16884312 0.31430528
000250 d4 a7 ac 3c 0c 71 2b 3e 3c aa a0 3d 05 2d 38 3e
       0.02107612 0.16742343 0.0784497 0.17985924
000260 c7 01 c0 3c 28 bd 9e 3d 5a 0d c6 3c 2b b0 b4 3d
       0.023438348 0.077509224 0.024176288 0.08822664
000270 00 00 00 00 00 00 00 00 00 00 00 00 00 00 00 00
       0.0 0.0 0.0 0.0
000280 6f 12 83 ba 00 00 00 00 6f 12 83 ba 00 00 00 00
       -0.001 0.0 -0.001 0.0
000290 00 00 00 00 6f 12 83 ba 6f 12 83 ba 00 00 00 00
       0.0 -0.001 -0.001 0.0
0002a0 6f 12 83 ba 00 00 00 00 00 00 00 00 00 00 00 00
       -0.001 0.0 0.0 0.0
0002b0 00 00 00 00 00 00 00 00 6f 12 83 ba 6f 12 83 ba
       0.0 0.0 -0.001 -0.001
0002c0 00 00 00 00 00 00 00 00 00 00 00 00 00 00 00 00
       0.0 0.0 0.0 0.0
0002d0 6f 12 83 ba 00 00 00 00 00 00 00 00 6f 12 83 ba
       -0.001 0.0 0.0 -0.001
0002e0 6f 12 83 ba 00 00 00 00 6f 12 83 ba 6f 12 83 ba
       -0.001 0.0 -0.001 -0.001
0002f0 6f 12 83 ba 00 00 00 00 6f 12 83 ba cd cc cc 3d
       -0.001 0.0 -0.001 0.1
000300 a8 01 03 bb 6f 12 83 ba a8 01 03 bb 6f 12 83 ba
       -0.001999 -0.001 -0.001999 -0.001
000310 a8 01 03 bb a8 01 03 bb a8 01 03 bb 33 17 38 bb
       -0.001999 -0.001999 -0.001999 -0.002809
000320 d2 22 0a bb 81 d8 08 bb 56 69 44 bb 0d ee 3d bb
       -0.0021077883 -0.0020881 -0.0029970012 -0.0028981
000330 55 e1 4a bb 0d ee 3d bb 56 69 44 bb ea c3 74 bb
       -0.0030957062 -0.0028981 -0.0029970012 -0.003734822
000340 52 24 50 bb ef c2 7e bb 53 fd 44 bb 56 69 44 bb
       -0.003175993 -0.0038873514 -0.003005822 -0.0029970012
000350 a0 f6 8b bb ec 2f 74 bb 38 24 a1 bb 01 44 82 bb
       -0.0042713434 -0.003726001 -0.0049176477 -0.003975392
000360 f3 cf b1 bb 5d c5 b0 bb 23 8a e2 bb 8a ce c3 bb
       -0.005426401 -0.0053946213 -0.00691344 -0.005975549
000370 f5 38 fd bb 3f 04 ee bb 74 45 04 bc 61 ad fe bb
       -0.007727737 -0.00726369 -0.0080732 -0.007772133
000380 66 70 22 bc f9 70 13 bc e2 76 13 bc 30 6c 12 bc
       -0.009914493 -0.008999103 -0.009000512 -0.008936927
000390 68 85 32 bc 7a 0d 36 bc 26 03 3a bc a3 4f 33 bc
       -0.010896064 -0.0111116115 -0.01135329 -0.01094428
0003a0 28 a1 52 bc c8 08 4f bc 02 b8 45 bc 00 58 51 bc
       -0.012855805 -0.012636371 -0.012067797 -0.0127773285
0003b0 e6 7c 61 bc f7 77 60 bc c6 ac 70 bc c0 d4 62 bc
       -0.013762688 -0.013700477 -0.01468963 -0.013844669
0003c0 72 cb 72 bc e8 af 70 bc 37 1d 81 bc 26 b4 66 bc
       -0.014819013 -0.014690377 -0.015761001 -0.014081037
0003d0 4d 57 81 bc 15 a5 87 bc 1d 3f 89 bc f0 82 8a bc
       -0.015788699 -0.01655821 -0.016753728 -0.016908139
0003e0 d6 48 8f bc b8 41 8f bc 28 98 91 bc 58 82 92 bc
       -0.017490786 -0.017487392 -0.017772749 -0.017884418
0003f0 01 d1 98 bc c6 03 9e bc eb ba 99 bc 58 94 9b bc
       -0.018654348 -0.019288909 -0.018765887 -0.018991634
