learning_process/task_12/models/model-3-0.npy (npy, 24464 bytes, 1 tensors)

array f4 [1521, 4]
000000 3e 00 be bb 23 e0 82 bb 23 e0 82 bb cf 74 a3 bb
       -0.0057983687 -0.0039940043 -0.0039940043 -0.00498829
000010 fa e2 bf bb 70 39 b9 bb 3e 83 a3 bb 01 f8 be bb
       -0.005855915 -0.005652599 -0.0049900105 -0.005827904
000020 1c 1c ef bb 46 df dd bb 46 78 db bb 61 8f 71 bb
       -0.007297052 -0.006771001 -0.0066976873 -0.0036859142
000030 72 c3 0f bc 5e 5a 03 bc fc 74 02 bc ac 59 e8 bb
       -0.008774625 -0.008017151 -0.007962462 -0.007090768
000040 cb 49 32 bc ab 99 22 bc be a8 2d bc e4 db 1f bc
       -0.010881851 -0.009924333 -0.010599313 -0.009757016
000050 6b c6 44 bc e2 d2 3f bc c1 87 43 bc 36 1f 4e bc
       -0.012010197 -0.011707993 -0.011934222 -0.012580683
000060 49 72 64 bc 3b 54 57 bc 01 b8 53 bc 26 28 57 bc
       -0.013943263 -0.013142641 -0.012922288 -0.013132131
000070 54 6b 78 bc 23 f4 77 bc 13 0c 74 bc d2 c7 81 bc
       -0.015162308 -0.01513389 -0.014895457 -0.015842352
000080 c6 1c 85 bc 89 7c 84 bc 37 4b 81 bc ef 42 85 bc
       -0.016249072 -0.016172664 -0.015782936 -0.016267268
000090 64 8d 90 bc 2d 97 8e bc cc 27 8a bc a1 93 8e bc
       -0.017645545 -0.01740607 -0.01686468 -0.01740438
0000a0 ba 9a 9f bc 9e 89 96 bc bb bb 99 bc 98 6a 9a bc
       -0.019482959 -0.018376168 -0.018766275 -0.018849656
0000b0 3c 11 94 bc 60 7a a8 bc 40 80 a6 bc 35 16 92 bc
       -0.018074624 -0.020566165 -0.020324826 -0.017832855
0000c0 fe 70 29 bc bf fe b0 bc 3a 85 9b bc 1d d7 27 bc
       -0.010341881 -0.021605847 -0.018984426 -0.010244158
0000d0 e8 00 a0 3c e2 83 a5 bc 62 e4 21 bc 5d d6 82 3c
       0.019531682 -0.020204488 -0.009881111 0.015971357
0000e0 b2 b0 01 bb c3 64 1c bc bc 17 bc 3c 7e e2 d8 3d
       -0.0019789157 -0.009545508 0.022960536 0.10590075
0000f0 b0 2b 8e bc 5b 8d ff 3c 7e 6d 40 bb 3c 19 2a 3d
       -0.017354816 0.031195333 -0.0029362137 0.04152797
000100 90 44 d3 bc eb 85 98 ba 60 4d 93 bc b5 c4 f7 3b
       -0.02578953 -0.001163659 -0.017981231 0.007561291
000110 bb 18 fa bc 96 15 8f bc e5 f0 de bc 52 89 86 bc
       -0.03052937 -0.017466348 -0.027214477 -0.016422901
000120 35 e8 09 bd 4c 44 e7 bc 6e 41 03 bd 0a 25 de bc
       -0.033668716 -0.028230809 -0.03204482 -0.027117271
000130 f4 48 11 bd 49 31 0b bd 35 2a 12 bd d1 87 08 bd
       -0.035469964 -0.03398255 -0.035684783 -0.03333265
000140 6b 09 1a bd b5 5d 17 bd bf 18 18 bd 55 b5 14 bd
       -0.037606638 -0.0369546 -0.037132975 -0.036305744
000150 56 33 24 bd 6d a7 1d bd 8f d0 1f bd 14 ca 1f bd
       -0.04008802 -0.038489748 -0.039017256 -0.039011076
000160 d7 53 26 bd 6e 99 26 bd 6e cc 27 bd bc 90 28 bd
       -0.0406073 -0.040673666 -0.040966444 -0.041153654
000170 5c 14 1f bd 06 36 2b bd 1f 38 2a bd 33 3a 23 bd
       -0.038837776 -0.041799568 -0.041557427 -0.039850425
000180 95 ad cb bc 4b 0c 2a bd 20 7f 1d bd e8 80 0c bd
       -0.024863044 -0.04151563 -0.038451314 -0.034302622
000190 e4 64 c5 3c 12 68 19 bd b0 f6 ab bc 4d db b0 3b
       0.02409596 -0.037452765 -0.020991653 0.0053972364
0001a0 b2 55 07 3e d4 aa c0 bc c0 2a 6c 3c 4b 99 09 3e
       0.13216284 -0.023518957 0.014414489 0.13437383
0001b0 2a 8f ab 3e 86 86 82 3c 8f 1d 18 3e 0a 64 ae 3e
       0.33507663 0.015933286 0.14855026 0.340607
0001c0 ba 70 0a 3f 71 84 e4 3d 8f 4a 97 3e 76 0f 12 3f
       0.5407826 0.11158074 0.2954907 0.5705484
0001d0 33 61 25 3f a1 c1 84 3e 87 99 e3 3e 8d 16 38 3f
       0.6460144 0.25928977 0.4445307 0.7190941
0001e0 3e 07 31 3f c9 7a db 3e 05 83 21 3f 95 b7 53 3f
       0.69151676 0.42867115 0.63090545 0.82702
0001f0 f9 5a 35 3f 12 e0 10 3f 91 e7 1c 3f 09 71 58 3f
       0.7084194 0.56591904 0.6129084 0.8454748
000200 b8 4b 23 3f 2f dd 04 3f d4 16 20 3f e8 36 5d 3f
       0.6378741 0.519 0.6253483 0.86411905
000210 3e 54 27 3f 81 c2 19 3f f7 c7 14 3f ae 08 62 3f
       0.6536292 0.60062414 0.5811762 0.88294494
000220 e5 4d 34 3f 8c 98 18 3f 2c e8 0b 3f b6 e7 66 3f
       0.7043136 0.5960777 0.5465114 0.9019731
000230 ef b7 ba 3e cd ff 14 3f 30 53 28 3f 02 d3 6b 3f
       0.36468455 0.5820282 0.65751934 0.9211885
000240 c7 29 f0 3d f5 73 17 3f 16 62 a6 3e fd 41 25 3f
       0.117267184 0.5916131 0.3249671 0.64553815
000250 af c8 86 3c af 7e 92 3e b6 1c b3 3d 6f 1a 8f 3e
       0.016453115 0.28612277 0.087457106 0.27949855
000260 cb a8 fd 3b 85 97 a3 3d fb 0a 67 3c 9f bc ac 3d
       0.007741069 0.079878844 0.014101739 0.08434414
000270 e0 da 82 bb 23 e0 82 bb e2 9b 9b bb 48 32 9f bb
       -0.003993377 -0.0039940043 -0.0047488073 -0.004858289
000280 da 03 4e bb 27 18 a2 bb 5f 5e a6 bb 43 3e 80 bb
       -0.0031435401 -0.004946727 -0.005077168 -0.003913672
000290 51 9c ba bb ae ef be bb 31 f6 c0 bb 53 7c ae 3c
       -0.005694904 -0.005826912 -0.0058887233 0.021299517
0002a0 88 0e ef bb cb 27 8a bb da 30 ea bb 24 0c fe ba
       -0.0072954334 -0.0042161695 -0.007146937 -0.001938228
0002b0 7d d9 27 bc 44 da 05 bc 5a 2e 23 bc ed f4 f3 bb
       -0.010244724 -0.008169714 -0.009959782 -0.007444969
0002c0 0a 63 4f bc e0 ef 3d bc b7 67 48 bc aa 43 3a bc
       -0.01265789 -0.011592835 -0.012231759 -0.011368671
0002d0 31 d6 59 bc 7a 27 7b bc 01 97 4f bc 18 19 49 bc
       -0.013295696 -0.015329236 -0.0126702795 -0.012274049
0002e0 3e a0 78 bc 05 ff 7e bc a5 68 81 bc 7d e2 81 bc
       -0.015174923 -0.015563731 -0.015796969 -0.015855068
0002f0 d8 bf 83 bc d4 83 85 bc e8 c7 82 bc 8d 1b 84 bc
       -0.01608269 -0.016298212 -0.015964463 -0.016126418
000300 e5 dc 8b bc 83 c5 8b bc eb 85 92 bc 30 b9 8f bc
       -0.017073104 -0.017061954 -0.017886123 -0.017544359
000310 06 78 87 bc ba 99 98 bc f9 4d 9c bc 7f 83 8c bc
       -0.016536724 -0.01862799 -0.019080149 -0.017152546
000320 60 fe 25 bc 69 1c a4 bc 09 52 a1 bc da 5a 28 bc
       -0.0101314485 -0.020033078 -0.019692438 -0.010275567
000330 5e e8 8f 3c b4 db 99 bc c4 83 9b bc 86 e6 91 3c
       0.017566856 -0.01878152 -0.01898373 0.017810117
000340 cf b1 a2 3d 1c a9 0c bc 00 ca 27 bc f8 12 bb 3d
       0.079440705 -0.008585241 -0.010241032 0.091344774
000350 e2 3b 05 3d 6e 5b c2 3c 8e 29 c2 3c 1a 04 6f 3e
       0.03252781 0.023725238 0.023701455 0.23341408
000360 f7 37 58 3b b6 6b e6 3d 76 48 04 bb b3 9e fd 3d
       0.0032992342 0.11251013 -0.0020184792 0.12383785
000370 1f ac 82 bc db 3c 3e 3d b7 9d 97 bc 45 b0 83 3d
       -0.015951214 0.046444755 -0.018507821 0.06430105
000380 f9 90 d6 bc 7c 7f c8 3b 0b a7 de bc a7 29 61 3c
       -0.026192175 0.006118713 -0.027179262 0.013742841
000390 5c d3 02 bd 05 d9 86 bc 9d bd 03 bd ce 4f 65 bc
       -0.03193985 -0.016460905 -0.03216325 -0.013996078
0003a0 40 a2 0f bd 19 82 e6 bc 3e a5 11 bd 16 85 e1 bc
       -0.035066843 -0.028138207 -0.035557978 -0.02752928
0003b0 bf f1 19 bd c8 6c 0e bd 9d 2b 1a bd 1e 3d 0c bd
       -0.037584063 -0.03477171 -0.03763925 -0.034237973
0003c0 4a 9d 22 bd b0 02 1d bd ea 5a 20 bd 9a 90 1e bd
       -0.039700784 -0.03833264 -0.039149202 -0.03871212
0003d0 e0 3c 24 bd f7 f3 25 bd 94 81 28 bd 9d e5 25 bd
       -0.040097117 -0.040515866 -0.0411392 -0.04050218
0003e0 1a e6 04 bd f0 26 29 bd 23 9f 2a bd 65 4a 1d bd
       -0.032446004 -0.0412969 -0.04165567 -0.038401026
0003f0 ab a7 1a bb 9a a2 25 bd da 64 20 bd 58 a5 b1 bc
       -0.0023598473 -0.040438272 -0.03915868 -0.021685287
