learning_process/task_12/models/model-5-2.npy (npy, 24464 bytes, 1 tensors)

array f4 [1521, 4]
0.004935947 -0.014557371 -0.015595418 -0.020940734 0.062139135 -0.015737325 0.0040294486 -0.013547764
0.17601939 0.006007777 0.0493054 0.0077298866 0.38920125 0.053293012 0.17214388 0.057701644
0.6473444 0.17361422 0.35843897 0.1652486 0.90152293 0.3598751 0.6428801 0.34484705
0.6493906 0.6440837 0.890581 0.6260296 0.360627 0.890581 0.6589231 0.37219048
0.14758423 0.63337284 0.34329265 0.14643459 0.046793204 0.32636514 0.1466909 0.044624332
0.0021425812 0.14107127 0.04679123 -0.00091118156 -0.014529275 0.037762303 -0.00047676594 -0.013583626
-0.017535402 -0.003104952 -0.013873042 -0.017216478 -0.016726224 -0.013833129 -0.016373038 -0.017138006
-0.015942175 -0.015015916 -0.01588056 -135.5 -0.014426062 -0.014822657 -0.0147917485 -0.01569839
-0.013654494 -0.0142106125 -0.013702384 -0.014525213 -0.013519111 -0.013748381 -0.012912582 -0.013216102
-0.013002848 -0.013293968 -0.01282437 -0.013272692 -0.01081097 -0.013360521 -0.012627182 -0.0105034895
-0.00488404 -0.012106217 -0.010516313 -0.0010942783 -0.010607239 -0.010172192 -0.0052821664 0.022128746
-0.011235486 -0.0050860224 -0.01028415 -0.005692281 -0.010460909 -0.010187793 -0.011741105 -0.009994662
-0.009402984 -0.010343878 -0.009758476 -0.009842857 -0.008445211 -0.009367353 -0.008889583 -0.008706184
-0.007525339 -0.008297208 -0.007972057 -0.008066189 -0.0065684128 -0.0073295287 -0.0069790357 -0.0069419597
-0.0064524356 -0.00642554 -0.0059850207 -0.00606498 -0.006489772 -0.0054489183 -0.0059850207 -0.0059408993
-0.005545084 -0.0053934753 -0.0049900105 -0.004978562 -0.004722275 -0.004143109 -0.0039940043 -0.0039772354
-0.003806191 -0.0031750228 -0.0039940043 -0.0039940043 -0.0038863812 -0.003086012 -0.0029970012 -0.003086982
-0.0037162 -0.0031750228 -0.0029970012 -0.003984213 -0.002809 -0.003184814 -0.0029970012 -0.0029970012
-0.002809 -0.002267191 -0.0028981 -0.001999 -0.0028981 -0.0020881 -0.001999 -0.001999
-0.001999 -0.0020881 -0.0028981 -0.0029970012 -0.013651367 -0.020756418 -0.01584359 -0.022548305
0.009560378 -0.020769639 0.0029148029 -0.020477604 0.058223944 -0.013330831 0.05333265 -0.014070648
0.16713937 0.0046319654 0.16907611 0.001917117 0.3702128 0.05899533 0.3589617 0.051808108
0.63445485 0.17823195 0.62830305 0.15864675 0.3748067 0.35644355 0.890581 0.36220026
0.16505569 0.63686204 0.6319273 0.17865512 0.050163485 0.35549933 0.3435549 0.044436295
0.0018115436 0.15093286 0.13888182 0.0051811743 -0.014470596 0.04103832 0.040604115 -0.013179537
-0.017676678 8.014304e-05 -0.0034723172 -0.01769905 -0.018513415 -0.013675489 -0.014146967 -0.017930483
-95.0 -0.017114643 -0.016808324 -0.018047757 0.0 0.0 0.0 0.0
-0.01474755 -135.5 -0.014898114 -0.015772685 -0.014371573 -0.015036661 -0.014049293 -0.0153144915
-0.013256125 -0.014090105 -0.013476235 -0.013678472 -0.010855231 -0.012979836 -0.013429438 -0.0100859385
-0.0005072907 -0.012947994 -0.012753807 -0.0006729009 0.025197845 -0.010033171 -0.010565147 0.03503129
-0.0057775634 -0.0031023643 -0.0038885677 0.108283505 -0.010329098 0.011243526 -0.010167063 0.015680786
-0.011081899 -0.005127484 -0.01092854 -0.004441771 -0.010607735 -0.009346842 -0.009794572 -0.009288296
00000000: b9bd a13b 0a82 6ebc ed83 7fbc e78b abbc
00000010: 9b85 7e3d 90eb 80bc 7709 843b 71f7 5dbc
00000020: 6d3e 343e e3dc c43b 76f4 493d fd4a fd3b
00000030: 6345 c73e c649 5a3d 7c46 303e 8f58 6c3d
00000040: 5db8 253f edc7 313e 5085 b73e ee36 293e
00000050: 35ca 663f 8d41 b83e ca93 243f cb8f b03e
00000060: 763e 263f abe2 243f 1efd 633f 7a43 203f
00000070: 1aa4 b83e 1efd 633f 2faf 283f c08f be3e
00000080: 5220 173e b924 223f 0ec4 af3e f3f2 153e
00000090: 3baa 3f3d 5519 a73e 2436 163e 01c8 363d
000000a0: 8c6a 0c3b fd74 103e 29a8 3f3d 5cdc 6eba
000000b0: 320c 6ebc a5ac 1a3d 71f6 f9b9 db8d 5ebc
000000c0: 67a6 8fbc 737c 4bbb c14b 63bc 9209 8dbc
000000d0: 6f05 89bc 59a4 62bc c020 86bc 0165 8cbc
000000e0: 2a99 82bc 5105 76bc f317 82bc 0080 07c3
000000f0: 4a5b 6cbc bbda 72bc 1759 72bc e999 80bc
00000100: 19b7 5fbc a1d3 68bc f77f 60bc 29fb 6dbc
00000110: 437f 5dbc e440 61bc 4b8f 53bc 5988 58bc
00000120: e609 55bc f1ce 59bc 4e1d 52bc b575 59bc
00000130: 7f20 31bc 16e6 5abc 3de2 4ebc d416 2cbc
00000140: 4c0a a0bb 2859 46bc 9d4c 2cbc e36d 8fba
00000150: fcc9 2dbc 44a9 26bc 0616 adbb 5847 b53c
00000160: 0b15 38bc a6a8 a6bb da7e 28bc 5086 babb
00000170: 3c64 2bbc b3ea 26bc c35d 40bc a7c0 23bc
00000180: f90e 1abc 5e79 29bc 04e2 1fbc ef43 21bc
00000190: c85d 0abc 8779 19bc 9da5 11bc 62a4 0ebc
000001a0: 1e97 f6bb 03f1 07bc 3b9d 02bc 0c28 04bc
000001b0: d73b d7bb 8b2c f0bb 65b0 e4bb 6179 e3bb
000001c0: f46e d3bb 568d d2bb fe1d c4bb bdbc c6bb
000001d0: 27a8 d4bb d78c b2bb fe1d c4bb e0ab c2bb
000001e0: 89b3 b5bb c0bb b0bb 3e83 a3bb 3423 a3bb
000001f0: 50bd 9abb ebc2 87bb 23e0 82bb 7853 82bb
00000200: 4a71 79bb 0b14 50bb 23e0 82bb 23e0 82bb
00000210: a8b2 7ebb b13e 4abb 5669 44bb f74e 4abb
00000220: 7d8b 73bb 0b14 50bb 5669 44bb 008e 82bb
00000230: 3317 38bb 50b8 50bb 5669 44bb 5669 44bb
00000240: 3317 38bb 2795 14bb 0dee 3dbb a801 03bb
00000250: 0dee 3dbb 81d8 08bb a801 03bb a801 03bb
00000260: a801 03bb 81d8 08bb 0dee 3dbb 5669 44bb
00000270: fca9 5fbc 5d09 aabc 6bca 81bc 39b7 b8bc
00000280: 22a3 1c3c 1725 aabc 4706 3f3b a6c0 a7bc
00000290: 3b7c 6e3d 8f69 5abc 5673 5a3d 9388 66bc
000002a0: 9526 2b3e bec7 973b 4a22 2d3e c647 fb3a
000002b0: 888c bd3e 16a5 713d d4c9 b73e bd34 543d
000002c0: a26b 223f 7082 363e 78d8 203f 4b74 223e
000002d0: aae6 bf3e c57f b63e 1efd 633f 5072 b93e
000002e0: 5c04 293e 6409 233f fdc5 213f 5ef1 363e
000002f0: 3a78 4d3d 0204 b63e 6ee6 af3e d502 363d
00000300: 5171 ed3a 258e 1a3e 0937 0e3e d7c6 a93b
00000310: 1416 6dbc cc17 283d 8050 263d fcee 57bc
00000320: aece 90bc 7812 a838 d18f 63bb 99fd 90bc
00000330: 72a9 97bc 290f 60bc aec8 67bc f3e2 92bc
00000340: 0000 bec2 0234 8cbc 9cb1 89bc e4d8 93bc
00000350: 0000 0000 0000 0000 0000 0000 0000 0000
00000360: b59f 71bc 0080 07c3 3817 74bc b835 81bc
00000370: bf76 6bbc 545c 76bc 012f 66bc a2e9 7abc
00000380: 3830 59bc 2fda 66bc 6dcb 5cbc ab1b 60bc
00000390: 24da 31bc 61a9 54bc 2507 5cbc 7e3f 25bc
000003a0: b4fb 04ba d323 54bc 58f5 50bc 9d65 30ba
000003b0: b66b ce3c 2b62 24bc 7019 2dbc f87c 0f3d
000003c0: b751 bdbb 0951 4bbb 57d7 7ebb bec3 dd3d
000003d0: 613b 29bc c436 383c c193 26bc fe74 803c
000003e0: da90 35bc 7404 a8bb 9e0d 33bc 478c 91bb
000003f0: 11cc 2dbc 7f23 19bc 6a79 20bc f02d 18bc
